…
I0216 15:56:34.277021 24778 net.cpp:322] The NetState phase (0) differed from the phase (1) specified by a rule in layer cifar
I0216 15:56:34.277042 24778 net.cpp:322] The NetState phase (0) differed from the phase (1) specified by a rule in layer accuracy
I0216 15:56:34.277142 24778 net.cpp:49] Initializing net from parameters: 
name: "CIFAR10_full"
state {
  phase: TRAIN
}
layer {
  name: "cifar"
  type: "Data"
  top: "data"
  top: "label"
  include {
    phase: TRAIN
  }
  transform_param {
    mean_file: "examples/cifar10/mean.binaryproto"
  }
  data_param {
    source: "examples/cifar10/cifar10_train_lmdb"
    batch_size: 100
    backend: LMDB
  }
}
layer {
  name: "conv1"
  type: "Convolution"
  bottom: "data"
  top: "conv1"
  param {
    lr_mult: 1
  }
  param {
    lr_mult: 2
  }
  convolution_param {
    num_output: 32
    pad: 2
    kernel_size: 5
    stride: 1
    weight_filler {
      type: "gaussian"
      std: 0.0001
    }
    bias_filler {
      type: "constant"
    }
  }
}
layer {
  name: "pool1"
  type: "Pooling"
  bottom: "conv1"
  top: "pool1"
  pooling_param {
    pool: MAX
    kernel_size: 3
    stride: 2
  }
}
layer {
  name: "relu1"
  type: "ReLU"
  bottom: "pool1"
  top: "pool1"
}
layer {
  name: "norm1"
  type: "LRN"
  bottom: "pool1"
  top: "norm1"
  lrn_param {
    local_size: 3
    alpha: 5e-05
    beta: 0.75
    norm_region: WITHIN_CHANNEL
  }
}
layer {
  name: "conv2"
  type: "Convolution"
  bottom: "norm1"
  top: "conv2"
  param {
    lr_mult: 1
  }
  param {
    lr_mult: 2
  }
  convolution_param {
    num_output: 32
    pad: 2
    kernel_size: 5
    stride: 1
    weight_filler {
      type: "gaussian"
      std: 0.01
    }
    bias_filler {
      type: "constant"
    }
  }
}
layer {
  name: "relu2"
  type: "ReLU"
  bottom: "conv2"
  top: "conv2"
}
layer {
  name: "pool2"
  type: "Pooling"
  bottom: "conv2"
  top: "pool2"
  pooling_param {
    pool: AVE
    kernel_size: 3
    stride: 2
  }
}
layer {
  name: "norm2"
  type: "LRN"
  bottom: "pool2"
  top: "norm2"
  lrn_param {
    local_size: 3
    alpha: 5e-05
    beta: 0.75
    norm_region: WITHIN_CHANNEL
  }
}
layer {
  name: "conv3"
  type: "Convolution"
  bottom: "norm2"
  top: "conv3"
  convolution_param {
    num_output: 64
    pad: 2
    kernel_size: 5
    stride: 1
    weight_filler {
      type: "gaussian"
      std: 0.01
    }
    bias_filler {
      type: "constant"
    }
  }
}
layer {
  name: "relu3"
  type: "ReLU"
  bottom: "conv3"
  top: "conv3"
}
layer {
  name: "pool3"
  type: "Pooling"
  bottom: "conv3"
  top: "pool3"
  pooling_param {
    pool: AVE
    kernel_size: 3
    stride: 2
  }
}
layer {
  name: "ip1"
  type: "InnerProduct"
  bottom: "pool3"
  top: "ip1"
  param {
    lr_mult: 1
  }
  param {
    lr_mult: 2
    decay_mult: 0
  }
  inner_product_param {
    num_output: 500
    weight_filler {
      type: "gaussian"
      std: 0.01
    }
    bias_filler {
      type: "constant"
    }
  }
}
layer {
  name: "relu4"
  type: "ReLU"
  bottom: "ip1"
  top: "ip1"
}
layer {
  name: "ip2"
  type: "InnerProduct"
  bottom: "ip1"
  top: "ip2"
  param {
    lr_mult: 1
    decay_mult: 250
  }
  param {
    lr_mult: 2
    decay_mult: 0
  }
  inner_product_param {
    num_output: 10
    weight_filler {
      type: "gaussian"
      std: 0.01
    }
    bias_filler {
      type: "constant"
    }
  }
}
layer {
  name: "loss"
  type: "SoftmaxWithLoss"
  bottom: "ip2"
  bottom: "label"
  top: "loss"
}
I0216 15:56:34.277215 24778 layer_factory.hpp:77] Creating layer cifar
I0216 15:56:34.277678 24778 net.cpp:106] Creating Layer cifar
I0216 15:56:34.277701 24778 net.cpp:411] cifar -> data
I0216 15:56:34.277737 24778 net.cpp:411] cifar -> label
I0216 15:56:34.277762 24778 data_transformer.cpp:25] Loading mean file from: examples/cifar10/mean.binaryproto
I0216 15:56:34.278697 24782 db_lmdb.cpp:38] Opened lmdb examples/cifar10/cifar10_train_lmdb
I0216 15:56:34.303323 24778 data_layer.cpp:41] output data size: 100,3,32,32
I0216 15:56:34.319190 24778 net.cpp:150] Setting up cifar
I0216 15:56:34.319242 24778 net.cpp:157] Top shape: 100 3 32 32 (307200)
I0216 15:56:34.319252 24778 net.cpp:157] Top shape: 100 (100)
I0216 15:56:34.319259 24778 net.cpp:165] Memory required for data: 1229200
I0216 15:56:34.319273 24778 layer_factory.hpp:77] Creating layer conv1
I0216 15:56:34.319303 24778 net.cpp:106] Creating Layer conv1
I0216 15:56:34.319311 24778 net.cpp:454] conv1 <- data
I0216 15:56:34.319327 24778 net.cpp:411] conv1 -> conv1
I0216 15:56:34.580549 24778 net.cpp:150] Setting up conv1
I0216 15:56:34.580592 24778 net.cpp:157] Top shape: 100 32 32 32 (3276800)
I0216 15:56:34.580597 24778 net.cpp:165] Memory required for data: 14336400
I0216 15:56:34.580617 24778 layer_factory.hpp:77] Creating layer pool1
I0216 15:56:34.580631 24778 net.cpp:106] Creating Layer pool1
I0216 15:56:34.580637 24778 net.cpp:454] pool1 <- conv1
I0216 15:56:34.580644 24778 net.cpp:411] pool1 -> pool1
I0216 15:56:34.581300 24778 net.cpp:150] Setting up pool1
I0216 15:56:34.581320 24778 net.cpp:157] Top shape: 100 32 16 16 (819200)
I0216 15:56:34.581323 24778 net.cpp:165] Memory required for data: 17613200
I0216 15:56:34.581328 24778 layer_factory.hpp:77] Creating layer relu1
I0216 15:56:34.581336 24778 net.cpp:106] Creating Layer relu1
I0216 15:56:34.581341 24778 net.cpp:454] relu1 <- pool1
I0216 15:56:34.581346 24778 net.cpp:397] relu1 -> pool1 (in-place)
I0216 15:56:34.582020 24778 net.cpp:150] Setting up relu1
I0216 15:56:34.582036 24778 net.cpp:157] Top shape: 100 32 16 16 (819200)
I0216 15:56:34.582041 24778 net.cpp:165] Memory required for data: 20890000
I0216 15:56:34.582046 24778 layer_factory.hpp:77] Creating layer norm1
I0216 15:56:34.582057 24778 net.cpp:106] Creating Layer norm1
I0216 15:56:34.582062 24778 net.cpp:454] norm1 <- pool1
I0216 15:56:34.582068 24778 net.cpp:411] norm1 -> norm1
I0216 15:56:34.583585 24778 net.cpp:150] Setting up norm1
I0216 15:56:34.583606 24778 net.cpp:157] Top shape: 100 32 16 16 (819200)
I0216 15:56:34.583611 24778 net.cpp:165] Memory required for data: 24166800
I0216 15:56:34.583614 24778 layer_factory.hpp:77] Creating layer conv2
I0216 15:56:34.583628 24778 net.cpp:106] Creating Layer conv2
I0216 15:56:34.583632 24778 net.cpp:454] conv2 <- norm1
I0216 15:56:34.583639 24778 net.cpp:411] conv2 -> conv2
I0216 15:56:34.587522 24778 net.cpp:150] Setting up conv2
I0216 15:56:34.587556 24778 net.cpp:157] Top shape: 100 32 16 16 (819200)
I0216 15:56:34.587561 24778 net.cpp:165] Memory required for data: 27443600
I0216 15:56:34.587574 24778 layer_factory.hpp:77] Creating layer relu2
I0216 15:56:34.587584 24778 net.cpp:106] Creating Layer relu2
I0216 15:56:34.587589 24778 net.cpp:454] relu2 <- conv2
I0216 15:56:34.587597 24778 net.cpp:397] relu2 -> conv2 (in-place)
I0216 15:56:34.588742 24778 net.cpp:150] Setting up relu2
I0216 15:56:34.588757 24778 net.cpp:157] Top shape: 100 32 16 16 (819200)
I0216 15:56:34.588760 24778 net.cpp:165] Memory required for data: 30720400
I0216 15:56:34.588764 24778 layer_factory.hpp:77] Creating layer pool2
I0216 15:56:34.588773 24778 net.cpp:106] Creating Layer pool2
I0216 15:56:34.588778 24778 net.cpp:454] pool2 <- conv2
I0216 15:56:34.588783 24778 net.cpp:411] pool2 -> pool2
I0216 15:56:34.589902 24778 net.cpp:150] Setting up pool2
I0216 15:56:34.589915 24778 net.cpp:157] Top shape: 100 32 8 8 (204800)
I0216 15:56:34.589920 24778 net.cpp:165] Memory required for data: 31539600
I0216 15:56:34.589923 24778 layer_factory.hpp:77] Creating layer norm2
I0216 15:56:34.589934 24778 net.cpp:106] Creating Layer norm2
I0216 15:56:34.589938 24778 net.cpp:454] norm2 <- pool2
I0216 15:56:34.589946 24778 net.cpp:411] norm2 -> norm2
I0216 15:56:34.590821 24778 net.cpp:150] Setting up norm2
I0216 15:56:34.590850 24778 net.cpp:157] Top shape: 100 32 8 8 (204800)
I0216 15:56:34.590855 24778 net.cpp:165] Memory required for data: 32358800
I0216 15:56:34.590859 24778 layer_factory.hpp:77] Creating layer conv3
I0216 15:56:34.590868 24778 net.cpp:106] Creating Layer conv3
I0216 15:56:34.590873 24778 net.cpp:454] conv3 <- norm2
I0216 15:56:34.590880 24778 net.cpp:411] conv3 -> conv3
I0216 15:56:34.594516 24778 net.cpp:150] Setting up conv3
I0216 15:56:34.594560 24778 net.cpp:157] Top shape: 100 64 8 8 (409600)
I0216 15:56:34.594569 24778 net.cpp:165] Memory required for data: 33997200
I0216 15:56:34.594591 24778 layer_factory.hpp:77] Creating layer relu3
I0216 15:56:34.594606 24778 net.cpp:106] Creating Layer relu3
I0216 15:56:34.594614 24778 net.cpp:454] relu3 <- conv3
I0216 15:56:34.594624 24778 net.cpp:397] relu3 -> conv3 (in-place)
I0216 15:56:34.595369 24778 net.cpp:150] Setting up relu3
I0216 15:56:34.595387 24778 net.cpp:157] Top shape: 100 64 8 8 (409600)
I0216 15:56:34.595391 24778 net.cpp:165] Memory required for data: 35635600
I0216 15:56:34.595396 24778 layer_factory.hpp:77] Creating layer pool3
I0216 15:56:34.595405 24778 net.cpp:106] Creating Layer pool3
I0216 15:56:34.595410 24778 net.cpp:454] pool3 <- conv3
I0216 15:56:34.595417 24778 net.cpp:411] pool3 -> pool3
I0216 15:56:34.596014 24778 net.cpp:150] Setting up pool3
I0216 15:56:34.596026 24778 net.cpp:157] Top shape: 100 64 4 4 (102400)
I0216 15:56:34.596030 24778 net.cpp:165] Memory required for data: 36045200
I0216 15:56:34.596035 24778 layer_factory.hpp:77] Creating layer ip1
I0216 15:56:34.596045 24778 net.cpp:106] Creating Layer ip1
I0216 15:56:34.596050 24778 net.cpp:454] ip1 <- pool3
I0216 15:56:34.596055 24778 net.cpp:411] ip1 -> ip1
I0216 15:56:34.609452 24778 net.cpp:150] Setting up ip1
I0216 15:56:34.609501 24778 net.cpp:157] Top shape: 100 500 (50000)
I0216 15:56:34.609510 24778 net.cpp:165] Memory required for data: 36245200
I0216 15:56:34.609524 24778 layer_factory.hpp:77] Creating layer relu4
I0216 15:56:34.609537 24778 net.cpp:106] Creating Layer relu4
I0216 15:56:34.609545 24778 net.cpp:454] relu4 <- ip1
I0216 15:56:34.609560 24778 net.cpp:397] relu4 -> ip1 (in-place)
I0216 15:56:34.610337 24778 net.cpp:150] Setting up relu4
I0216 15:56:34.610357 24778 net.cpp:157] Top shape: 100 500 (50000)
I0216 15:56:34.610362 24778 net.cpp:165] Memory required for data: 36445200
I0216 15:56:34.610366 24778 layer_factory.hpp:77] Creating layer ip2
I0216 15:56:34.610378 24778 net.cpp:106] Creating Layer ip2
I0216 15:56:34.610381 24778 net.cpp:454] ip2 <- ip1
I0216 15:56:34.610389 24778 net.cpp:411] ip2 -> ip2
I0216 15:56:34.611027 24778 net.cpp:150] Setting up ip2
I0216 15:56:34.611045 24778 net.cpp:157] Top shape: 100 10 (1000)
I0216 15:56:34.611049 24778 net.cpp:165] Memory required for data: 36449200
I0216 15:56:34.611062 24778 layer_factory.hpp:77] Creating layer loss
I0216 15:56:34.611070 24778 net.cpp:106] Creating Layer loss
I0216 15:56:34.611075 24778 net.cpp:454] loss <- ip2
I0216 15:56:34.611079 24778 net.cpp:454] loss <- label
I0216 15:56:34.611086 24778 net.cpp:411] loss -> loss
I0216 15:56:34.611098 24778 layer_factory.hpp:77] Creating layer loss
…
I0216 15:56:34.612563 24778 solver.cpp:181] Creating test net (#0) specified by net file: examples/cifar10/cifar10_full_train_test.prototxt
I0216 15:56:34.612598 24778 net.cpp:322] The NetState phase (1) differed from the phase (0) specified by a rule in layer cifar
I0216 15:56:34.612710 24778 net.cpp:49] Initializing net from parameters: 
name: "CIFAR10_full"
state {
  phase: TEST
}
layer {
  name: "cifar"
  type: "Data"
  top: "data"
  top: "label"
  include {
    phase: TEST
  }
  transform_param {
    mean_file: "examples/cifar10/mean.binaryproto"
  }
  data_param {
    source: "examples/cifar10/cifar10_test_lmdb"
    batch_size: 100
    backend: LMDB
  }
}
layer {
  name: "conv1"
  type: "Convolution"
  bottom: "data"
  top: "conv1"
  param {
    lr_mult: 1
  }
  param {
    lr_mult: 2
  }
  convolution_param {
    num_output: 32
    pad: 2
    kernel_size: 5
    stride: 1
    weight_filler {
      type: "gaussian"
      std: 0.0001
    }
    bias_filler {
      type: "constant"
    }
  }
}
layer {
  name: "pool1"
  type: "Pooling"
  bottom: "conv1"
  top: "pool1"
  pooling_param {
    pool: MAX
    kernel_size: 3
    stride: 2
  }
}
layer {
  name: "relu1"
  type: "ReLU"
  bottom: "pool1"
  top: "pool1"
}
layer {
  name: "norm1"
  type: "LRN"
  bottom: "pool1"
  top: "norm1"
  lrn_param {
    local_size: 3
    alpha: 5e-05
    beta: 0.75
    norm_region: WITHIN_CHANNEL
  }
}
layer {
  name: "conv2"
  type: "Convolution"
  bottom: "norm1"
  top: "conv2"
  param {
    lr_mult: 1
  }
  param {
    lr_mult: 2
  }
  convolution_param {
    num_output: 32
    pad: 2
    kernel_size: 5
    stride: 1
    weight_filler {
      type: "gaussian"
      std: 0.01
    }
    bias_filler {
      type: "constant"
    }
  }
}
layer {
  name: "relu2"
  type: "ReLU"
  bottom: "conv2"
  top: "conv2"
}
layer {
  name: "pool2"
  type: "Pooling"
  bottom: "conv2"
  top: "pool2"
  pooling_param {
    pool: AVE
    kernel_size: 3
    stride: 2
  }
}
layer {
  name: "norm2"
  type: "LRN"
  bottom: "pool2"
  top: "norm2"
  lrn_param {
    local_size: 3
    alpha: 5e-05
    beta: 0.75
    norm_region: WITHIN_CHANNEL
  }
}
layer {
  name: "conv3"
  type: "Convolution"
  bottom: "norm2"
  top: "conv3"
  convolution_param {
    num_output: 64
    pad: 2
    kernel_size: 5
    stride: 1
    weight_filler {
      type: "gaussian"
      std: 0.01
    }
    bias_filler {
      type: "constant"
    }
  }
}
layer {
  name: "relu3"
  type: "ReLU"
  bottom: "conv3"
  top: "conv3"
}
layer {
  name: "pool3"
  type: "Pooling"
  bottom: "conv3"
  top: "pool3"
  pooling_param {
    pool: AVE
    kernel_size: 3
    stride: 2
  }
}
layer {
  name: "ip1"
  type: "InnerProduct"
  bottom: "pool3"
  top: "ip1"
  param {
    lr_mult: 1
  }
  param {
    lr_mult: 2
    decay_mult: 0
  }
  inner_product_param {
    num_output: 500
    weight_filler {
      type: "gaussian"
      std: 0.01
    }
    bias_filler {
      type: "constant"
    }
  }
}
layer {
  name: "relu4"
  type: "ReLU"
  bottom: "ip1"
  top: "ip1"
}
layer {
  name: "ip2"
  type: "InnerProduct"
  bottom: "ip1"
  top: "ip2"
  param {
    lr_mult: 1
    decay_mult: 250
  }
  param {
    lr_mult: 2
    decay_mult: 0
  }
  inner_product_param {
    num_output: 10
    weight_filler {
      type: "gaussian"
      std: 0.01
    }
    bias_filler {
      type: "constant"
    }
  }
}
layer {
  name: "accuracy"
  type: "Accuracy"
  bottom: "ip2"
  bottom: "label"
  top: "accuracy"
  include {
    phase: TEST
  }
}
layer {
  name: "loss"
  type: "SoftmaxWithLoss"
  bottom: "ip2"
  bottom: "label"
  top: "loss"
}
I0216 15:56:34.612795 24778 layer_factory.hpp:77] Creating layer cifar
I0216 15:56:34.612893 24778 net.cpp:106] Creating Layer cifar
I0216 15:56:34.612915 24778 net.cpp:411] cifar -> data
I0216 15:56:34.612926 24778 net.cpp:411] cifar -> label
I0216 15:56:34.612934 24778 data_transformer.cpp:25] Loading mean file from: examples/cifar10/mean.binaryproto
I0216 15:56:34.613965 24784 db_lmdb.cpp:38] Opened lmdb examples/cifar10/cifar10_test_lmdb
I0216 15:56:34.614073 24778 data_layer.cpp:41] output data size: 100,3,32,32
I0216 15:56:34.617583 24778 net.cpp:150] Setting up cifar
I0216 15:56:34.617621 24778 net.cpp:157] Top shape: 100 3 32 32 (307200)
I0216 15:56:34.617632 24778 net.cpp:157] Top shape: 100 (100)
I0216 15:56:34.617640 24778 net.cpp:165] Memory required for data: 1229200
I0216 15:56:34.617648 24778 layer_factory.hpp:77] Creating layer label_cifar_1_split
I0216 15:56:34.617665 24778 net.cpp:106] Creating Layer label_cifar_1_split
I0216 15:56:34.617671 24778 net.cpp:454] label_cifar_1_split <- label
I0216 15:56:34.617682 24778 net.cpp:411] label_cifar_1_split -> label_cifar_1_split_0
I0216 15:56:34.617697 24778 net.cpp:411] label_cifar_1_split -> label_cifar_1_split_1
I0216 15:56:34.617756 24778 net.cpp:150] Setting up label_cifar_1_split
I0216 15:56:34.617769 24778 net.cpp:157] Top shape: 100 (100)
I0216 15:56:34.617775 24778 net.cpp:157] Top shape: 100 (100)
I0216 15:56:34.617780 24778 net.cpp:165] Memory required for data: 1230000
I0216 15:56:34.617785 24778 layer_factory.hpp:77] Creating layer conv1
I0216 15:56:34.617801 24778 net.cpp:106] Creating Layer conv1
I0216 15:56:34.617808 24778 net.cpp:454] conv1 <- data
I0216 15:56:34.617818 24778 net.cpp:411] conv1 -> conv1
I0216 15:56:34.621101 24778 net.cpp:150] Setting up conv1
I0216 15:56:34.621132 24778 net.cpp:157] Top shape: 100 32 32 32 (3276800)
I0216 15:56:34.621140 24778 net.cpp:165] Memory required for data: 14337200
I0216 15:56:34.621158 24778 layer_factory.hpp:77] Creating layer pool1
I0216 15:56:34.621175 24778 net.cpp:106] Creating Layer pool1
I0216 15:56:34.621183 24778 net.cpp:454] pool1 <- conv1
I0216 15:56:34.621201 24778 net.cpp:411] pool1 -> pool1
I0216 15:56:34.622095 24778 net.cpp:150] Setting up pool1
I0216 15:56:34.622113 24778 net.cpp:157] Top shape: 100 32 16 16 (819200)
I0216 15:56:34.622124 24778 net.cpp:165] Memory required for data: 17614000
I0216 15:56:34.622131 24778 layer_factory.hpp:77] Creating layer relu1
I0216 15:56:34.622145 24778 net.cpp:106] Creating Layer relu1
I0216 15:56:34.622153 24778 net.cpp:454] relu1 <- pool1
I0216 15:56:34.622161 24778 net.cpp:397] relu1 -> pool1 (in-place)
I0216 15:56:34.622974 24778 net.cpp:150] Setting up relu1
I0216 15:56:34.622997 24778 net.cpp:157] Top shape: 100 32 16 16 (819200)
I0216 15:56:34.623003 24778 net.cpp:165] Memory required for data: 20890800
I0216 15:56:34.623010 24778 layer_factory.hpp:77] Creating layer norm1
I0216 15:56:34.623024 24778 net.cpp:106] Creating Layer norm1
I0216 15:56:34.623033 24778 net.cpp:454] norm1 <- pool1
I0216 15:56:34.623042 24778 net.cpp:411] norm1 -> norm1
I0216 15:56:34.624457 24778 net.cpp:150] Setting up norm1
I0216 15:56:34.624490 24778 net.cpp:157] Top shape: 100 32 16 16 (819200)
I0216 15:56:34.624497 24778 net.cpp:165] Memory required for data: 24167600
I0216 15:56:34.624505 24778 layer_factory.hpp:77] Creating layer conv2
I0216 15:56:34.624519 24778 net.cpp:106] Creating Layer conv2
I0216 15:56:34.624527 24778 net.cpp:454] conv2 <- norm1
I0216 15:56:34.624541 24778 net.cpp:411] conv2 -> conv2
I0216 15:56:34.627919 24778 net.cpp:150] Setting up conv2
I0216 15:56:34.627965 24778 net.cpp:157] Top shape: 100 32 16 16 (819200)
I0216 15:56:34.627974 24778 net.cpp:165] Memory required for data: 27444400
I0216 15:56:34.627995 24778 layer_factory.hpp:77] Creating layer relu2
I0216 15:56:34.628021 24778 net.cpp:106] Creating Layer relu2
I0216 15:56:34.628041 24778 net.cpp:454] relu2 <- conv2
I0216 15:56:34.628051 24778 net.cpp:397] relu2 -> conv2 (in-place)
I0216 15:56:34.628855 24778 net.cpp:150] Setting up relu2
I0216 15:56:34.628873 24778 net.cpp:157] Top shape: 100 32 16 16 (819200)
I0216 15:56:34.628877 24778 net.cpp:165] Memory required for data: 30721200
I0216 15:56:34.628881 24778 layer_factory.hpp:77] Creating layer pool2
I0216 15:56:34.628891 24778 net.cpp:106] Creating Layer pool2
I0216 15:56:34.628896 24778 net.cpp:454] pool2 <- conv2
I0216 15:56:34.628901 24778 net.cpp:411] pool2 -> pool2
I0216 15:56:34.630256 24778 net.cpp:150] Setting up pool2
I0216 15:56:34.630285 24778 net.cpp:157] Top shape: 100 32 8 8 (204800)
I0216 15:56:34.630292 24778 net.cpp:165] Memory required for data: 31540400
I0216 15:56:34.630300 24778 layer_factory.hpp:77] Creating layer norm2
I0216 15:56:34.630314 24778 net.cpp:106] Creating Layer norm2
I0216 15:56:34.630321 24778 net.cpp:454] norm2 <- pool2
I0216 15:56:34.630331 24778 net.cpp:411] norm2 -> norm2
I0216 15:56:34.631853 24778 net.cpp:150] Setting up norm2
I0216 15:56:34.631871 24778 net.cpp:157] Top shape: 100 32 8 8 (204800)
I0216 15:56:34.631875 24778 net.cpp:165] Memory required for data: 32359600
I0216 15:56:34.631880 24778 layer_factory.hpp:77] Creating layer conv3
I0216 15:56:34.631891 24778 net.cpp:106] Creating Layer conv3
I0216 15:56:34.631896 24778 net.cpp:454] conv3 <- norm2
I0216 15:56:34.631903 24778 net.cpp:411] conv3 -> conv3
I0216 15:56:34.635768 24778 net.cpp:150] Setting up conv3
I0216 15:56:34.635787 24778 net.cpp:157] Top shape: 100 64 8 8 (409600)
I0216 15:56:34.635792 24778 net.cpp:165] Memory required for data: 33998000
I0216 15:56:34.635804 24778 layer_factory.hpp:77] Creating layer relu3
I0216 15:56:34.635812 24778 net.cpp:106] Creating Layer relu3
I0216 15:56:34.635817 24778 net.cpp:454] relu3 <- conv3
I0216 15:56:34.635823 24778 net.cpp:397] relu3 -> conv3 (in-place)
I0216 15:56:34.636932 24778 net.cpp:150] Setting up relu3
I0216 15:56:34.636948 24778 net.cpp:157] Top shape: 100 64 8 8 (409600)
I0216 15:56:34.636952 24778 net.cpp:165] Memory required for data: 35636400
I0216 15:56:34.636957 24778 layer_factory.hpp:77] Creating layer pool3
I0216 15:56:34.636965 24778 net.cpp:106] Creating Layer pool3
I0216 15:56:34.636970 24778 net.cpp:454] pool3 <- conv3
I0216 15:56:34.636977 24778 net.cpp:411] pool3 -> pool3
I0216 15:56:34.638295 24778 net.cpp:150] Setting up pool3
I0216 15:56:34.638322 24778 net.cpp:157] Top shape: 100 64 4 4 (102400)
I0216 15:56:34.638330 24778 net.cpp:165] Memory required for data: 36046000
I0216 15:56:34.638337 24778 layer_factory.hpp:77] Creating layer ip1
I0216 15:56:34.638353 24778 net.cpp:106] Creating Layer ip1
I0216 15:56:34.638360 24778 net.cpp:454] ip1 <- pool3
I0216 15:56:34.638373 24778 net.cpp:411] ip1 -> ip1
I0216 15:56:34.655282 24778 net.cpp:150] Setting up ip1
I0216 15:56:34.655326 24778 net.cpp:157] Top shape: 100 500 (50000)
I0216 15:56:34.655333 24778 net.cpp:165] Memory required for data: 36246000
I0216 15:56:34.655347 24778 layer_factory.hpp:77] Creating layer relu4
I0216 15:56:34.655360 24778 net.cpp:106] Creating Layer relu4
I0216 15:56:34.655367 24778 net.cpp:454] relu4 <- ip1
I0216 15:56:34.655377 24778 net.cpp:397] relu4 -> ip1 (in-place)
I0216 15:56:34.656343 24778 net.cpp:150] Setting up relu4
I0216 15:56:34.656361 24778 net.cpp:157] Top shape: 100 500 (50000)
I0216 15:56:34.656369 24778 net.cpp:165] Memory required for data: 36446000
I0216 15:56:34.656375 24778 layer_factory.hpp:77] Creating layer ip2
I0216 15:56:34.656394 24778 net.cpp:106] Creating Layer ip2
I0216 15:56:34.656402 24778 net.cpp:454] ip2 <- ip1
I0216 15:56:34.656412 24778 net.cpp:411] ip2 -> ip2
I0216 15:56:34.656745 24778 net.cpp:150] Setting up ip2
I0216 15:56:34.656757 24778 net.cpp:157] Top shape: 100 10 (1000)
I0216 15:56:34.656764 24778 net.cpp:165] Memory required for data: 36450000
I0216 15:56:34.656780 24778 layer_factory.hpp:77] Creating layer ip2_ip2_0_split
I0216 15:56:34.656792 24778 net.cpp:106] Creating Layer ip2_ip2_0_split
I0216 15:56:34.656808 24778 net.cpp:454] ip2_ip2_0_split <- ip2
I0216 15:56:34.656827 24778 net.cpp:411] ip2_ip2_0_split -> ip2_ip2_0_split_0
I0216 15:56:34.656837 24778 net.cpp:411] ip2_ip2_0_split -> ip2_ip2_0_split_1
I0216 15:56:34.656889 24778 net.cpp:150] Setting up ip2_ip2_0_split
I0216 15:56:34.656899 24778 net.cpp:157] Top shape: 100 10 (1000)
I0216 15:56:34.656906 24778 net.cpp:157] Top shape: 100 10 (1000)
I0216 15:56:34.656913 24778 net.cpp:165] Memory required for data: 36458000
I0216 15:56:34.656918 24778 layer_factory.hpp:77] Creating layer accuracy
I0216 15:56:34.656929 24778 net.cpp:106] Creating Layer accuracy
I0216 15:56:34.656935 24778 net.cpp:454] accuracy <- ip2_ip2_0_split_0
I0216 15:56:34.656942 24778 net.cpp:454] accuracy <- label_cifar_1_split_0
I0216 15:56:34.656950 24778 net.cpp:411] accuracy -> accuracy
…
