…
I0218 18:13:27.679559 26810 net.cpp:322] The NetState phase (0) differed from the phase (1) specified by a rule in layer mnist
I0218 18:13:27.679589 26810 net.cpp:322] The NetState phase (0) differed from the phase (1) specified by a rule in layer accuracy
I0218 18:13:27.679698 26810 net.cpp:49] Initializing net from parameters: 
name: "LeNet"
state {
  phase: TRAIN
}
layer {
  name: "mnist"
  type: "Data"
  top: "data"
  top: "label"
  include {
    phase: TRAIN
  }
  transform_param {
    scale: 0.00390625
  }
  data_param {
    source: "examples/mnist/mnist_train_lmdb"
    batch_size: 64
    backend: LMDB
  }
}
layer {
  name: "conv1"
  type: "Convolution"
  bottom: "data"
  top: "conv1"
  param {
    lr_mult: 1
  }
  param {
    lr_mult: 2
  }
  convolution_param {
    num_output: 20
    kernel_size: 5
    stride: 1
    weight_filler {
      type: "xavier"
    }
    bias_filler {
      type: "constant"
    }
  }
}
layer {
  name: "pool1"
  type: "Pooling"
  bottom: "conv1"
  top: "pool1"
  pooling_param {
    pool: MAX
    kernel_size: 2
    stride: 2
  }
}
layer {
  name: "conv2"
  type: "Convolution"
  bottom: "pool1"
  top: "conv2"
  param {
    lr_mult: 1
  }
  param {
    lr_mult: 2
  }
  convolution_param {
    num_output: 50
    kernel_size: 5
    stride: 1
    weight_filler {
      type: "xavier"
    }
    bias_filler {
      type: "constant"
    }
  }
}
layer {
  name: "pool2"
  type: "Pooling"
  bottom: "conv2"
  top: "pool2"
  pooling_param {
    pool: MAX
    kernel_size: 2
    stride: 2
  }
}
layer {
  name: "ip1"
  type: "InnerProduct"
  bottom: "pool2"
  top: "ip1"
  param {
    lr_mult: 1
  }
  param {
    lr_mult: 2
  }
  inner_product_param {
    num_output: 500
    weight_filler {
      type: "xavier"
    }
    bias_filler {
      type: "constant"
    }
  }
}
layer {
  name: "relu1"
  type: "ReLU"
  bottom: "ip1"
  top: "ip1"
}
layer {
  name: "ip2"
  type: "InnerProduct"
  bottom: "ip1"
  top: "ip2"
  param {
    lr_mult: 1
  }
  param {
    lr_mult: 2
  }
  inner_product_param {
    num_output: 10
    weight_filler {
      type: "xavier"
    }
    bias_filler {
      type: "constant"
    }
  }
}
layer {
  name: "loss"
  type: "SoftmaxWithLoss"
  bottom: "ip2"
  bottom: "label"
  top: "loss"
}
I0218 18:13:27.679786 26810 layer_factory.hpp:77] Creating layer mnist
I0218 18:13:27.680426 26810 net.cpp:106] Creating Layer mnist
I0218 18:13:27.680449 26810 net.cpp:411] mnist -> data
I0218 18:13:27.680483 26810 net.cpp:411] mnist -> label
I0218 18:13:27.681442 26814 db_lmdb.cpp:38] Opened lmdb examples/mnist/mnist_train_lmdb
I0218 18:13:27.693620 26810 data_layer.cpp:41] output data size: 64,1,28,28
I0218 18:13:27.695106 26810 net.cpp:150] Setting up mnist
I0218 18:13:27.695132 26810 net.cpp:157] Top shape: 64 1 28 28 (50176)
I0218 18:13:27.695145 26810 net.cpp:157] Top shape: 64 (64)
I0218 18:13:27.695152 26810 net.cpp:165] Memory required for data: 200960
I0218 18:13:27.695168 26810 layer_factory.hpp:77] Creating layer conv1
I0218 18:13:27.695194 26810 net.cpp:106] Creating Layer conv1
I0218 18:13:27.695207 26810 net.cpp:454] conv1 <- data
I0218 18:13:27.695230 26810 net.cpp:411] conv1 -> conv1
I0218 18:13:27.859567 26810 net.cpp:150] Setting up conv1
I0218 18:13:27.859617 26810 net.cpp:157] Top shape: 64 20 24 24 (737280)
I0218 18:13:27.859629 26810 net.cpp:165] Memory required for data: 3150080
I0218 18:13:27.859658 26810 layer_factory.hpp:77] Creating layer pool1
I0218 18:13:27.859681 26810 net.cpp:106] Creating Layer pool1
I0218 18:13:27.859694 26810 net.cpp:454] pool1 <- conv1
I0218 18:13:27.859719 26810 net.cpp:411] pool1 -> pool1
I0218 18:13:27.860563 26810 net.cpp:150] Setting up pool1
I0218 18:13:27.860584 26810 net.cpp:157] Top shape: 64 20 12 12 (184320)
I0218 18:13:27.860594 26810 net.cpp:165] Memory required for data: 3887360
I0218 18:13:27.860601 26810 layer_factory.hpp:77] Creating layer conv2
I0218 18:13:27.860618 26810 net.cpp:106] Creating Layer conv2
I0218 18:13:27.860628 26810 net.cpp:454] conv2 <- pool1
I0218 18:13:27.860641 26810 net.cpp:411] conv2 -> conv2
I0218 18:13:27.863687 26810 net.cpp:150] Setting up conv2
I0218 18:13:27.863741 26810 net.cpp:157] Top shape: 64 50 8 8 (204800)
I0218 18:13:27.863754 26810 net.cpp:165] Memory required for data: 4706560
I0218 18:13:27.863775 26810 layer_factory.hpp:77] Creating layer pool2
I0218 18:13:27.863796 26810 net.cpp:106] Creating Layer pool2
I0218 18:13:27.863806 26810 net.cpp:454] pool2 <- conv2
I0218 18:13:27.863818 26810 net.cpp:411] pool2 -> pool2
I0218 18:13:27.864748 26810 net.cpp:150] Setting up pool2
I0218 18:13:27.864799 26810 net.cpp:157] Top shape: 64 50 4 4 (51200)
I0218 18:13:27.864812 26810 net.cpp:165] Memory required for data: 4911360
I0218 18:13:27.864823 26810 layer_factory.hpp:77] Creating layer ip1
I0218 18:13:27.864841 26810 net.cpp:106] Creating Layer ip1
I0218 18:13:27.864850 26810 net.cpp:454] ip1 <- pool2
I0218 18:13:27.864864 26810 net.cpp:411] ip1 -> ip1
I0218 18:13:27.868320 26810 net.cpp:150] Setting up ip1
I0218 18:13:27.868366 26810 net.cpp:157] Top shape: 64 500 (32000)
I0218 18:13:27.868379 26810 net.cpp:165] Memory required for data: 5039360
I0218 18:13:27.868402 26810 layer_factory.hpp:77] Creating layer relu1
I0218 18:13:27.868419 26810 net.cpp:106] Creating Layer relu1
I0218 18:13:27.868428 26810 net.cpp:454] relu1 <- ip1
I0218 18:13:27.868441 26810 net.cpp:397] relu1 -> ip1 (in-place)
I0218 18:13:27.869377 26810 net.cpp:150] Setting up relu1
I0218 18:13:27.869400 26810 net.cpp:157] Top shape: 64 500 (32000)
I0218 18:13:27.869410 26810 net.cpp:165] Memory required for data: 5167360
I0218 18:13:27.869417 26810 layer_factory.hpp:77] Creating layer ip2
I0218 18:13:27.869439 26810 net.cpp:106] Creating Layer ip2
I0218 18:13:27.869451 26810 net.cpp:454] ip2 <- ip1
I0218 18:13:27.869464 26810 net.cpp:411] ip2 -> ip2
I0218 18:13:27.870131 26810 net.cpp:150] Setting up ip2
I0218 18:13:27.870151 26810 net.cpp:157] Top shape: 64 10 (640)
I0218 18:13:27.870159 26810 net.cpp:165] Memory required for data: 5169920
I0218 18:13:27.870172 26810 layer_factory.hpp:77] Creating layer loss
I0218 18:13:27.870188 26810 net.cpp:106] Creating Layer loss
I0218 18:13:27.870198 26810 net.cpp:454] loss <- ip2
I0218 18:13:27.870208 26810 net.cpp:454] loss <- label
I0218 18:13:27.870223 26810 net.cpp:411] loss -> loss
I0218 18:13:27.870254 26810 layer_factory.hpp:77] Creating layer loss
…
I0218 18:13:27.871852 26810 solver.cpp:181] Creating test net (#0) specified by net file: examples/mnist/lenet_train_test.prototxt
I0218 18:13:27.871897 26810 net.cpp:322] The NetState phase (1) differed from the phase (0) specified by a rule in layer mnist
I0218 18:13:27.872054 26810 net.cpp:49] Initializing net from parameters: 
name: "LeNet"
state {
  phase: TEST
}
layer {
  name: "mnist"
  type: "Data"
  top: "data"
  top: "label"
  include {
    phase: TEST
  }
  transform_param {
    scale: 0.00390625
  }
  data_param {
    source: "examples/mnist/mnist_test_lmdb"
    batch_size: 100
    backend: LMDB
  }
}
layer {
  name: "conv1"
  type: "Convolution"
  bottom: "data"
  top: "conv1"
  param {
    lr_mult: 1
  }
  param {
    lr_mult: 2
  }
  convolution_param {
    num_output: 20
    kernel_size: 5
    stride: 1
    weight_filler {
      type: "xavier"
    }
    bias_filler {
      type: "constant"
    }
  }
}
layer {
  name: "pool1"
  type: "Pooling"
  bottom: "conv1"
  top: "pool1"
  pooling_param {
    pool: MAX
    kernel_size: 2
    stride: 2
  }
}
layer {
  name: "conv2"
  type: "Convolution"
  bottom: "pool1"
  top: "conv2"
  param {
    lr_mult: 1
  }
  param {
    lr_mult: 2
  }
  convolution_param {
    num_output: 50
    kernel_size: 5
    stride: 1
    weight_filler {
      type: "xavier"
    }
    bias_filler {
      type: "constant"
    }
  }
}
layer {
  name: "pool2"
  type: "Pooling"
  bottom: "conv2"
  top: "pool2"
  pooling_param {
    pool: MAX
    kernel_size: 2
    stride: 2
  }
}
layer {
  name: "ip1"
  type: "InnerProduct"
  bottom: "pool2"
  top: "ip1"
  param {
    lr_mult: 1
  }
  param {
    lr_mult: 2
  }
  inner_product_param {
    num_output: 500
    weight_filler {
      type: "xavier"
    }
    bias_filler {
      type: "constant"
    }
  }
}
layer {
  name: "relu1"
  type: "ReLU"
  bottom: "ip1"
  top: "ip1"
}
layer {
  name: "ip2"
  type: "InnerProduct"
  bottom: "ip1"
  top: "ip2"
  param {
    lr_mult: 1
  }
  param {
    lr_mult: 2
  }
  inner_product_param {
    num_output: 10
    weight_filler {
      type: "xavier"
    }
    bias_filler {
      type: "constant"
    }
  }
}
layer {
  name: "accuracy"
  type: "Accuracy"
  bottom: "ip2"
  bottom: "label"
  top: "accuracy"
  include {
    phase: TEST
  }
}
layer {
  name: "loss"
  type: "SoftmaxWithLoss"
  bottom: "ip2"
  bottom: "label"
  top: "loss"
}
I0218 18:13:27.872164 26810 layer_factory.hpp:77] Creating layer mnist
I0218 18:13:27.872308 26810 net.cpp:106] Creating Layer mnist
I0218 18:13:27.872328 26810 net.cpp:411] mnist -> data
I0218 18:13:27.872346 26810 net.cpp:411] mnist -> label
I0218 18:13:27.873323 26816 db_lmdb.cpp:38] Opened lmdb examples/mnist/mnist_test_lmdb
I0218 18:13:27.873484 26810 data_layer.cpp:41] output data size: 100,1,28,28
I0218 18:13:27.874904 26810 net.cpp:150] Setting up mnist
I0218 18:13:27.874929 26810 net.cpp:157] Top shape: 100 1 28 28 (78400)
I0218 18:13:27.874943 26810 net.cpp:157] Top shape: 100 (100)
I0218 18:13:27.874949 26810 net.cpp:165] Memory required for data: 314000
I0218 18:13:27.874958 26810 layer_factory.hpp:77] Creating layer label_mnist_1_split
I0218 18:13:27.874974 26810 net.cpp:106] Creating Layer label_mnist_1_split
I0218 18:13:27.874984 26810 net.cpp:454] label_mnist_1_split <- label
I0218 18:13:27.874994 26810 net.cpp:411] label_mnist_1_split -> label_mnist_1_split_0
I0218 18:13:27.875007 26810 net.cpp:411] label_mnist_1_split -> label_mnist_1_split_1
I0218 18:13:27.875102 26810 net.cpp:150] Setting up label_mnist_1_split
I0218 18:13:27.875119 26810 net.cpp:157] Top shape: 100 (100)
I0218 18:13:27.875129 26810 net.cpp:157] Top shape: 100 (100)
I0218 18:13:27.875136 26810 net.cpp:165] Memory required for data: 314800
I0218 18:13:27.875143 26810 layer_factory.hpp:77] Creating layer conv1
I0218 18:13:27.875161 26810 net.cpp:106] Creating Layer conv1
I0218 18:13:27.875171 26810 net.cpp:454] conv1 <- data
I0218 18:13:27.875185 26810 net.cpp:411] conv1 -> conv1
I0218 18:13:27.878640 26810 net.cpp:150] Setting up conv1
I0218 18:13:27.878674 26810 net.cpp:157] Top shape: 100 20 24 24 (1152000)
I0218 18:13:27.878686 26810 net.cpp:165] Memory required for data: 4922800
I0218 18:13:27.878715 26810 layer_factory.hpp:77] Creating layer pool1
I0218 18:13:27.878736 26810 net.cpp:106] Creating Layer pool1
I0218 18:13:27.878759 26810 net.cpp:454] pool1 <- conv1
I0218 18:13:27.878789 26810 net.cpp:411] pool1 -> pool1
I0218 18:13:27.879739 26810 net.cpp:150] Setting up pool1
I0218 18:13:27.879758 26810 net.cpp:157] Top shape: 100 20 12 12 (288000)
I0218 18:13:27.879766 26810 net.cpp:165] Memory required for data: 6074800
I0218 18:13:27.879775 26810 layer_factory.hpp:77] Creating layer conv2
I0218 18:13:27.879793 26810 net.cpp:106] Creating Layer conv2
I0218 18:13:27.879804 26810 net.cpp:454] conv2 <- pool1
I0218 18:13:27.879817 26810 net.cpp:411] conv2 -> conv2
I0218 18:13:27.883121 26810 net.cpp:150] Setting up conv2
I0218 18:13:27.883157 26810 net.cpp:157] Top shape: 100 50 8 8 (320000)
I0218 18:13:27.883165 26810 net.cpp:165] Memory required for data: 7354800
I0218 18:13:27.883183 26810 layer_factory.hpp:77] Creating layer pool2
I0218 18:13:27.883201 26810 net.cpp:106] Creating Layer pool2
I0218 18:13:27.883210 26810 net.cpp:454] pool2 <- conv2
I0218 18:13:27.883221 26810 net.cpp:411] pool2 -> pool2
I0218 18:13:27.884243 26810 net.cpp:150] Setting up pool2
I0218 18:13:27.884263 26810 net.cpp:157] Top shape: 100 50 4 4 (80000)
I0218 18:13:27.884273 26810 net.cpp:165] Memory required for data: 7674800
I0218 18:13:27.884280 26810 layer_factory.hpp:77] Creating layer ip1
I0218 18:13:27.884295 26810 net.cpp:106] Creating Layer ip1
I0218 18:13:27.884305 26810 net.cpp:454] ip1 <- pool2
I0218 18:13:27.884316 26810 net.cpp:411] ip1 -> ip1
I0218 18:13:27.887776 26810 net.cpp:150] Setting up ip1
I0218 18:13:27.887811 26810 net.cpp:157] Top shape: 100 500 (50000)
I0218 18:13:27.887822 26810 net.cpp:165] Memory required for data: 7874800
I0218 18:13:27.887841 26810 layer_factory.hpp:77] Creating layer relu1
I0218 18:13:27.887857 26810 net.cpp:106] Creating Layer relu1
I0218 18:13:27.887866 26810 net.cpp:454] relu1 <- ip1
I0218 18:13:27.887879 26810 net.cpp:397] relu1 -> ip1 (in-place)
I0218 18:13:27.888826 26810 net.cpp:150] Setting up relu1
I0218 18:13:27.888846 26810 net.cpp:157] Top shape: 100 500 (50000)
I0218 18:13:27.888856 26810 net.cpp:165] Memory required for data: 8074800
I0218 18:13:27.888865 26810 layer_factory.hpp:77] Creating layer ip2
I0218 18:13:27.888885 26810 net.cpp:106] Creating Layer ip2
I0218 18:13:27.888903 26810 net.cpp:454] ip2 <- ip1
I0218 18:13:27.888919 26810 net.cpp:411] ip2 -> ip2
I0218 18:13:27.889132 26810 net.cpp:150] Setting up ip2
I0218 18:13:27.889152 26810 net.cpp:157] Top shape: 100 10 (1000)
I0218 18:13:27.889161 26810 net.cpp:165] Memory required for data: 8078800
I0218 18:13:27.889173 26810 layer_factory.hpp:77] Creating layer ip2_ip2_0_split
I0218 18:13:27.889184 26810 net.cpp:106] Creating Layer ip2_ip2_0_split
I0218 18:13:27.889194 26810 net.cpp:454] ip2_ip2_0_split <- ip2
I0218 18:13:27.889202 26810 net.cpp:411] ip2_ip2_0_split -> ip2_ip2_0_split_0
I0218 18:13:27.889214 26810 net.cpp:411] ip2_ip2_0_split -> ip2_ip2_0_split_1
I0218 18:13:27.889273 26810 net.cpp:150] Setting up ip2_ip2_0_split
I0218 18:13:27.889287 26810 net.cpp:157] Top shape: 100 10 (1000)
I0218 18:13:27.889297 26810 net.cpp:157] Top shape: 100 10 (1000)
I0218 18:13:27.889302 26810 net.cpp:165] Memory required for data: 8086800
I0218 18:13:27.889309 26810 layer_factory.hpp:77] Creating layer accuracy
I0218 18:13:27.889322 26810 net.cpp:106] Creating Layer accuracy
I0218 18:13:27.889330 26810 net.cpp:454] accuracy <- ip2_ip2_0_split_0
I0218 18:13:27.889338 26810 net.cpp:454] accuracy <- label_mnist_1_split_0
I0218 18:13:27.889349 26810 net.cpp:411] accuracy -> accuracy
…
