…
I0218 17:37:32.915568 26599 net.cpp:322] The NetState phase (0) differed from the phase (1) specified by a rule in layer cifar
I0218 17:37:32.915608 26599 net.cpp:322] The NetState phase (0) differed from the phase (1) specified by a rule in layer accuracy
I0218 17:37:32.915788 26599 net.cpp:49] Initializing net from parameters: 
name: "CIFAR10_full"
state {
  phase: TRAIN
}
layer {
  name: "cifar"
  type: "Data"
  top: "data"
  top: "label"
  include {
    phase: TRAIN
  }
  transform_param {
    mean_file: "examples/cifar10/mean.binaryproto"
  }
  data_param {
    source: "examples/cifar10/cifar10_train_lmdb"
    batch_size: 100
    backend: LMDB
  }
}
layer {
  name: "conv1"
  type: "Convolution"
  bottom: "data"
  top: "conv1"
  param {
    lr_mult: 1
  }
  param {
    lr_mult: 2
  }
  convolution_param {
    num_output: 32
    pad: 2
    kernel_size: 5
    stride: 1
    weight_filler {
      type: "gaussian"
      std: 0.0001
    }
    bias_filler {
      type: "constant"
    }
  }
}
layer {
  name: "pool1"
  type: "Pooling"
  bottom: "conv1"
  top: "pool1"
  pooling_param {
    pool: MAX
    kernel_size: 3
    stride: 2
  }
}
layer {
  name: "relu1"
  type: "ReLU"
  bottom: "pool1"
  top: "pool1"
}
layer {
  name: "norm1"
  type: "LRN"
  bottom: "pool1"
  top: "norm1"
  lrn_param {
    local_size: 3
    alpha: 5e-05
    beta: 0.75
    norm_region: WITHIN_CHANNEL
  }
}
layer {
  name: "conv2"
  type: "Convolution"
  bottom: "norm1"
  top: "conv2"
  param {
    lr_mult: 1
  }
  param {
    lr_mult: 2
  }
  convolution_param {
    num_output: 32
    pad: 2
    kernel_size: 5
    stride: 1
    weight_filler {
      type: "gaussian"
      std: 0.01
    }
    bias_filler {
      type: "constant"
    }
  }
}
layer {
  name: "relu2"
  type: "ReLU"
  bottom: "conv2"
  top: "conv2"
}
layer {
  name: "pool2"
  type: "Pooling"
  bottom: "conv2"
  top: "pool2"
  pooling_param {
    pool: AVE
    kernel_size: 3
    stride: 2
  }
}
layer {
  name: "norm2"
  type: "LRN"
  bottom: "pool2"
  top: "norm2"
  lrn_param {
    local_size: 3
    alpha: 5e-05
    beta: 0.75
    norm_region: WITHIN_CHANNEL
  }
}
layer {
  name: "conv3"
  type: "Convolution"
  bottom: "norm2"
  top: "conv3"
  convolution_param {
    num_output: 64
    pad: 2
    kernel_size: 5
    stride: 1
    weight_filler {
      type: "gaussian"
      std: 0.01
    }
    bias_filler {
      type: "constant"
    }
  }
}
layer {
  name: "relu3"
  type: "ReLU"
  bottom: "conv3"
  top: "conv3"
}
layer {
  name: "pool3"
  type: "Pooling"
  bottom: "conv3"
  top: "pool3"
  pooling_param {
    pool: AVE
    kernel_size: 3
    stride: 2
  }
}
layer {
  name: "ip1"
  type: "InnerProduct"
  bottom: "pool3"
  top: "ip1"
  param {
    lr_mult: 1
  }
  param {
    lr_mult: 2
    decay_mult: 0
  }
  inner_product_param {
    num_output: 500
    weight_filler {
      type: "gaussian"
      std: 0.01
    }
    bias_filler {
      type: "constant"
    }
  }
}
layer {
  name: "relu4"
  type: "ReLU"
  bottom: "ip1"
  top: "ip1"
}
layer {
  name: "ip2"
  type: "InnerProduct"
  bottom: "ip1"
  top: "ip2"
  param {
    lr_mult: 1
    decay_mult: 250
  }
  param {
    lr_mult: 2
    decay_mult: 0
  }
  inner_product_param {
    num_output: 10
    weight_filler {
      type: "gaussian"
      std: 0.01
    }
    bias_filler {
      type: "constant"
    }
  }
}
layer {
  name: "loss"
  type: "SoftmaxWithLoss"
  bottom: "ip2"
  bottom: "label"
  top: "loss"
}
I0218 17:37:32.915912 26599 layer_factory.hpp:77] Creating layer cifar
I0218 17:37:32.916561 26599 net.cpp:106] Creating Layer cifar
I0218 17:37:32.916596 26599 net.cpp:411] cifar -> data
I0218 17:37:32.916642 26599 net.cpp:411] cifar -> label
I0218 17:37:32.916671 26599 data_transformer.cpp:25] Loading mean file from: examples/cifar10/mean.binaryproto
I0218 17:37:32.917589 26603 db_lmdb.cpp:38] Opened lmdb examples/cifar10/cifar10_train_lmdb
I0218 17:37:32.929760 26599 data_layer.cpp:41] output data size: 100,3,32,32
I0218 17:37:32.933118 26599 net.cpp:150] Setting up cifar
I0218 17:37:32.933161 26599 net.cpp:157] Top shape: 100 3 32 32 (307200)
I0218 17:37:32.933176 26599 net.cpp:157] Top shape: 100 (100)
I0218 17:37:32.933184 26599 net.cpp:165] Memory required for data: 1229200
I0218 17:37:32.933198 26599 layer_factory.hpp:77] Creating layer conv1
I0218 17:37:32.933224 26599 net.cpp:106] Creating Layer conv1
I0218 17:37:32.933238 26599 net.cpp:454] conv1 <- data
I0218 17:37:32.933257 26599 net.cpp:411] conv1 -> conv1
I0218 17:37:33.102164 26599 net.cpp:150] Setting up conv1
I0218 17:37:33.102216 26599 net.cpp:157] Top shape: 100 32 32 32 (3276800)
I0218 17:37:33.102229 26599 net.cpp:165] Memory required for data: 14336400
I0218 17:37:33.102258 26599 layer_factory.hpp:77] Creating layer pool1
I0218 17:37:33.102280 26599 net.cpp:106] Creating Layer pool1
I0218 17:37:33.102293 26599 net.cpp:454] pool1 <- conv1
I0218 17:37:33.102305 26599 net.cpp:411] pool1 -> pool1
I0218 17:37:33.103148 26599 net.cpp:150] Setting up pool1
I0218 17:37:33.103170 26599 net.cpp:157] Top shape: 100 32 16 16 (819200)
I0218 17:37:33.103180 26599 net.cpp:165] Memory required for data: 17613200
I0218 17:37:33.103188 26599 layer_factory.hpp:77] Creating layer relu1
I0218 17:37:33.103200 26599 net.cpp:106] Creating Layer relu1
I0218 17:37:33.103209 26599 net.cpp:454] relu1 <- pool1
I0218 17:37:33.103219 26599 net.cpp:397] relu1 -> pool1 (in-place)
I0218 17:37:33.103988 26599 net.cpp:150] Setting up relu1
I0218 17:37:33.104012 26599 net.cpp:157] Top shape: 100 32 16 16 (819200)
I0218 17:37:33.104022 26599 net.cpp:165] Memory required for data: 20890000
I0218 17:37:33.104032 26599 layer_factory.hpp:77] Creating layer norm1
I0218 17:37:33.104049 26599 net.cpp:106] Creating Layer norm1
I0218 17:37:33.104060 26599 net.cpp:454] norm1 <- pool1
I0218 17:37:33.104073 26599 net.cpp:411] norm1 -> norm1
I0218 17:37:33.105279 26599 net.cpp:150] Setting up norm1
I0218 17:37:33.105304 26599 net.cpp:157] Top shape: 100 32 16 16 (819200)
I0218 17:37:33.105314 26599 net.cpp:165] Memory required for data: 24166800
I0218 17:37:33.105322 26599 layer_factory.hpp:77] Creating layer conv2
I0218 17:37:33.105337 26599 net.cpp:106] Creating Layer conv2
I0218 17:37:33.105345 26599 net.cpp:454] conv2 <- norm1
I0218 17:37:33.105355 26599 net.cpp:411] conv2 -> conv2
I0218 17:37:33.109539 26599 net.cpp:150] Setting up conv2
I0218 17:37:33.109580 26599 net.cpp:157] Top shape: 100 32 16 16 (819200)
I0218 17:37:33.109593 26599 net.cpp:165] Memory required for data: 27443600
I0218 17:37:33.109614 26599 layer_factory.hpp:77] Creating layer relu2
I0218 17:37:33.109629 26599 net.cpp:106] Creating Layer relu2
I0218 17:37:33.109642 26599 net.cpp:454] relu2 <- conv2
I0218 17:37:33.109655 26599 net.cpp:397] relu2 -> conv2 (in-place)
I0218 17:37:33.110524 26599 net.cpp:150] Setting up relu2
I0218 17:37:33.110545 26599 net.cpp:157] Top shape: 100 32 16 16 (819200)
I0218 17:37:33.110555 26599 net.cpp:165] Memory required for data: 30720400
I0218 17:37:33.110563 26599 layer_factory.hpp:77] Creating layer pool2
I0218 17:37:33.110577 26599 net.cpp:106] Creating Layer pool2
I0218 17:37:33.110586 26599 net.cpp:454] pool2 <- conv2
I0218 17:37:33.110596 26599 net.cpp:411] pool2 -> pool2
I0218 17:37:33.111471 26599 net.cpp:150] Setting up pool2
I0218 17:37:33.111493 26599 net.cpp:157] Top shape: 100 32 8 8 (204800)
I0218 17:37:33.111503 26599 net.cpp:165] Memory required for data: 31539600
I0218 17:37:33.111511 26599 layer_factory.hpp:77] Creating layer norm2
I0218 17:37:33.111531 26599 net.cpp:106] Creating Layer norm2
I0218 17:37:33.111541 26599 net.cpp:454] norm2 <- pool2
I0218 17:37:33.111554 26599 net.cpp:411] norm2 -> norm2
I0218 17:37:33.112818 26599 net.cpp:150] Setting up norm2
I0218 17:37:33.112850 26599 net.cpp:157] Top shape: 100 32 8 8 (204800)
I0218 17:37:33.112860 26599 net.cpp:165] Memory required for data: 32358800
I0218 17:37:33.112867 26599 layer_factory.hpp:77] Creating layer conv3
I0218 17:37:33.112882 26599 net.cpp:106] Creating Layer conv3
I0218 17:37:33.112891 26599 net.cpp:454] conv3 <- norm2
I0218 17:37:33.112915 26599 net.cpp:411] conv3 -> conv3
I0218 17:37:33.117707 26599 net.cpp:150] Setting up conv3
I0218 17:37:33.117754 26599 net.cpp:157] Top shape: 100 64 8 8 (409600)
I0218 17:37:33.117765 26599 net.cpp:165] Memory required for data: 33997200
I0218 17:37:33.117789 26599 layer_factory.hpp:77] Creating layer relu3
I0218 17:37:33.117806 26599 net.cpp:106] Creating Layer relu3
I0218 17:37:33.117817 26599 net.cpp:454] relu3 <- conv3
I0218 17:37:33.117831 26599 net.cpp:397] relu3 -> conv3 (in-place)
I0218 17:37:33.118708 26599 net.cpp:150] Setting up relu3
I0218 17:37:33.118731 26599 net.cpp:157] Top shape: 100 64 8 8 (409600)
I0218 17:37:33.118741 26599 net.cpp:165] Memory required for data: 35635600
I0218 17:37:33.118748 26599 layer_factory.hpp:77] Creating layer pool3
I0218 17:37:33.118764 26599 net.cpp:106] Creating Layer pool3
I0218 17:37:33.118774 26599 net.cpp:454] pool3 <- conv3
I0218 17:37:33.118785 26599 net.cpp:411] pool3 -> pool3
I0218 17:37:33.119686 26599 net.cpp:150] Setting up pool3
I0218 17:37:33.119706 26599 net.cpp:157] Top shape: 100 64 4 4 (102400)
I0218 17:37:33.119716 26599 net.cpp:165] Memory required for data: 36045200
I0218 17:37:33.119724 26599 layer_factory.hpp:77] Creating layer ip1
I0218 17:37:33.119742 26599 net.cpp:106] Creating Layer ip1
I0218 17:37:33.119753 26599 net.cpp:454] ip1 <- pool3
I0218 17:37:33.119767 26599 net.cpp:411] ip1 -> ip1
I0218 17:37:33.137353 26599 net.cpp:150] Setting up ip1
I0218 17:37:33.137405 26599 net.cpp:157] Top shape: 100 500 (50000)
I0218 17:37:33.137418 26599 net.cpp:165] Memory required for data: 36245200
I0218 17:37:33.137435 26599 layer_factory.hpp:77] Creating layer relu4
I0218 17:37:33.137454 26599 net.cpp:106] Creating Layer relu4
I0218 17:37:33.137465 26599 net.cpp:454] relu4 <- ip1
I0218 17:37:33.137481 26599 net.cpp:397] relu4 -> ip1 (in-place)
I0218 17:37:33.138490 26599 net.cpp:150] Setting up relu4
I0218 17:37:33.138512 26599 net.cpp:157] Top shape: 100 500 (50000)
I0218 17:37:33.138521 26599 net.cpp:165] Memory required for data: 36445200
I0218 17:37:33.138530 26599 layer_factory.hpp:77] Creating layer ip2
I0218 17:37:33.138546 26599 net.cpp:106] Creating Layer ip2
I0218 17:37:33.138556 26599 net.cpp:454] ip2 <- ip1
I0218 17:37:33.138568 26599 net.cpp:411] ip2 -> ip2
I0218 17:37:33.139401 26599 net.cpp:150] Setting up ip2
I0218 17:37:33.139427 26599 net.cpp:157] Top shape: 100 10 (1000)
I0218 17:37:33.139436 26599 net.cpp:165] Memory required for data: 36449200
I0218 17:37:33.139456 26599 layer_factory.hpp:77] Creating layer loss
I0218 17:37:33.139472 26599 net.cpp:106] Creating Layer loss
I0218 17:37:33.139483 26599 net.cpp:454] loss <- ip2
I0218 17:37:33.139492 26599 net.cpp:454] loss <- label
I0218 17:37:33.139506 26599 net.cpp:411] loss -> loss
I0218 17:37:33.139524 26599 layer_factory.hpp:77] Creating layer loss
…
I0218 17:37:33.141427 26599 solver.cpp:181] Creating test net (#0) specified by net file: examples/cifar10/cifar10_full_train_test.prototxt
I0218 17:37:33.141484 26599 net.cpp:322] The NetState phase (1) differed from the phase (0) specified by a rule in layer cifar
I0218 17:37:33.141683 26599 net.cpp:49] Initializing net from parameters: 
name: "CIFAR10_full"
state {
  phase: TEST
}
layer {
  name: "cifar"
  type: "Data"
  top: "data"
  top: "label"
  include {
    phase: TEST
  }
  transform_param {
    mean_file: "examples/cifar10/mean.binaryproto"
  }
  data_param {
    source: "examples/cifar10/cifar10_test_lmdb"
    batch_size: 100
    backend: LMDB
  }
}
layer {
  name: "conv1"
  type: "Convolution"
  bottom: "data"
  top: "conv1"
  param {
    lr_mult: 1
  }
  param {
    lr_mult: 2
  }
  convolution_param {
    num_output: 32
    pad: 2
    kernel_size: 5
    stride: 1
    weight_filler {
      type: "gaussian"
      std: 0.0001
    }
    bias_filler {
      type: "constant"
    }
  }
}
layer {
  name: "pool1"
  type: "Pooling"
  bottom: "conv1"
  top: "pool1"
  pooling_param {
    pool: MAX
    kernel_size: 3
    stride: 2
  }
}
layer {
  name: "relu1"
  type: "ReLU"
  bottom: "pool1"
  top: "pool1"
}
layer {
  name: "norm1"
  type: "LRN"
  bottom: "pool1"
  top: "norm1"
  lrn_param {
    local_size: 3
    alpha: 5e-05
    beta: 0.75
    norm_region: WITHIN_CHANNEL
  }
}
layer {
  name: "conv2"
  type: "Convolution"
  bottom: "norm1"
  top: "conv2"
  param {
    lr_mult: 1
  }
  param {
    lr_mult: 2
  }
  convolution_param {
    num_output: 32
    pad: 2
    kernel_size: 5
    stride: 1
    weight_filler {
      type: "gaussian"
      std: 0.01
    }
    bias_filler {
      type: "constant"
    }
  }
}
layer {
  name: "relu2"
  type: "ReLU"
  bottom: "conv2"
  top: "conv2"
}
layer {
  name: "pool2"
  type: "Pooling"
  bottom: "conv2"
  top: "pool2"
  pooling_param {
    pool: AVE
    kernel_size: 3
    stride: 2
  }
}
layer {
  name: "norm2"
  type: "LRN"
  bottom: "pool2"
  top: "norm2"
  lrn_param {
    local_size: 3
    alpha: 5e-05
    beta: 0.75
    norm_region: WITHIN_CHANNEL
  }
}
layer {
  name: "conv3"
  type: "Convolution"
  bottom: "norm2"
  top: "conv3"
  convolution_param {
    num_output: 64
    pad: 2
    kernel_size: 5
    stride: 1
    weight_filler {
      type: "gaussian"
      std: 0.01
    }
    bias_filler {
      type: "constant"
    }
  }
}
layer {
  name: "relu3"
  type: "ReLU"
  bottom: "conv3"
  top: "conv3"
}
layer {
  name: "pool3"
  type: "Pooling"
  bottom: "conv3"
  top: "pool3"
  pooling_param {
    pool: AVE
    kernel_size: 3
    stride: 2
  }
}
layer {
  name: "ip1"
  type: "InnerProduct"
  bottom: "pool3"
  top: "ip1"
  param {
    lr_mult: 1
  }
  param {
    lr_mult: 2
    decay_mult: 0
  }
  inner_product_param {
    num_output: 500
    weight_filler {
      type: "gaussian"
      std: 0.01
    }
    bias_filler {
      type: "constant"
    }
  }
}
layer {
  name: "relu4"
  type: "ReLU"
  bottom: "ip1"
  top: "ip1"
}
layer {
  name: "ip2"
  type: "InnerProduct"
  bottom: "ip1"
  top: "ip2"
  param {
    lr_mult: 1
    decay_mult: 250
  }
  param {
    lr_mult: 2
    decay_mult: 0
  }
  inner_product_param {
    num_output: 10
    weight_filler {
      type: "gaussian"
      std: 0.01
    }
    bias_filler {
      type: "constant"
    }
  }
}
layer {
  name: "accuracy"
  type: "Accuracy"
  bottom: "ip2"
  bottom: "label"
  top: "accuracy"
  include {
    phase: TEST
  }
}
layer {
  name: "loss"
  type: "SoftmaxWithLoss"
  bottom: "ip2"
  bottom: "label"
  top: "loss"
}
I0218 17:37:33.141829 26599 layer_factory.hpp:77] Creating layer cifar
I0218 17:37:33.141978 26599 net.cpp:106] Creating Layer cifar
I0218 17:37:33.141998 26599 net.cpp:411] cifar -> data
I0218 17:37:33.142019 26599 net.cpp:411] cifar -> label
I0218 17:37:33.142036 26599 data_transformer.cpp:25] Loading mean file from: examples/cifar10/mean.binaryproto
I0218 17:37:33.143056 26605 db_lmdb.cpp:38] Opened lmdb examples/cifar10/cifar10_test_lmdb
I0218 17:37:33.143220 26599 data_layer.cpp:41] output data size: 100,3,32,32
I0218 17:37:33.146412 26599 net.cpp:150] Setting up cifar
I0218 17:37:33.146461 26599 net.cpp:157] Top shape: 100 3 32 32 (307200)
I0218 17:37:33.146474 26599 net.cpp:157] Top shape: 100 (100)
I0218 17:37:33.146481 26599 net.cpp:165] Memory required for data: 1229200
I0218 17:37:33.146491 26599 layer_factory.hpp:77] Creating layer label_cifar_1_split
I0218 17:37:33.146508 26599 net.cpp:106] Creating Layer label_cifar_1_split
I0218 17:37:33.146517 26599 net.cpp:454] label_cifar_1_split <- label
I0218 17:37:33.146529 26599 net.cpp:411] label_cifar_1_split -> label_cifar_1_split_0
I0218 17:37:33.146546 26599 net.cpp:411] label_cifar_1_split -> label_cifar_1_split_1
I0218 17:37:33.146622 26599 net.cpp:150] Setting up label_cifar_1_split
I0218 17:37:33.146639 26599 net.cpp:157] Top shape: 100 (100)
I0218 17:37:33.146649 26599 net.cpp:157] Top shape: 100 (100)
I0218 17:37:33.146656 26599 net.cpp:165] Memory required for data: 1230000
I0218 17:37:33.146664 26599 layer_factory.hpp:77] Creating layer conv1
I0218 17:37:33.146684 26599 net.cpp:106] Creating Layer conv1
I0218 17:37:33.146695 26599 net.cpp:454] conv1 <- data
I0218 17:37:33.146710 26599 net.cpp:411] conv1 -> conv1
I0218 17:37:33.150264 26599 net.cpp:150] Setting up conv1
I0218 17:37:33.150301 26599 net.cpp:157] Top shape: 100 32 32 32 (3276800)
I0218 17:37:33.150315 26599 net.cpp:165] Memory required for data: 14337200
I0218 17:37:33.150333 26599 layer_factory.hpp:77] Creating layer pool1
I0218 17:37:33.150355 26599 net.cpp:106] Creating Layer pool1
I0218 17:37:33.150369 26599 net.cpp:454] pool1 <- conv1
I0218 17:37:33.150384 26599 net.cpp:411] pool1 -> pool1
I0218 17:37:33.152011 26599 net.cpp:150] Setting up pool1
I0218 17:37:33.152040 26599 net.cpp:157] Top shape: 100 32 16 16 (819200)
I0218 17:37:33.152051 26599 net.cpp:165] Memory required for data: 17614000
I0218 17:37:33.152060 26599 layer_factory.hpp:77] Creating layer relu1
I0218 17:37:33.152078 26599 net.cpp:106] Creating Layer relu1
I0218 17:37:33.152091 26599 net.cpp:454] relu1 <- pool1
I0218 17:37:33.152113 26599 net.cpp:397] relu1 -> pool1 (in-place)
I0218 17:37:33.153053 26599 net.cpp:150] Setting up relu1
I0218 17:37:33.153077 26599 net.cpp:157] Top shape: 100 32 16 16 (819200)
I0218 17:37:33.153087 26599 net.cpp:165] Memory required for data: 20890800
I0218 17:37:33.153096 26599 layer_factory.hpp:77] Creating layer norm1
I0218 17:37:33.153118 26599 net.cpp:106] Creating Layer norm1
I0218 17:37:33.153128 26599 net.cpp:454] norm1 <- pool1
I0218 17:37:33.153144 26599 net.cpp:411] norm1 -> norm1
I0218 17:37:33.154546 26599 net.cpp:150] Setting up norm1
I0218 17:37:33.154575 26599 net.cpp:157] Top shape: 100 32 16 16 (819200)
I0218 17:37:33.154587 26599 net.cpp:165] Memory required for data: 24167600
I0218 17:37:33.154597 26599 layer_factory.hpp:77] Creating layer conv2
I0218 17:37:33.154613 26599 net.cpp:106] Creating Layer conv2
I0218 17:37:33.154620 26599 net.cpp:454] conv2 <- norm1
I0218 17:37:33.154635 26599 net.cpp:411] conv2 -> conv2
I0218 17:37:33.158957 26599 net.cpp:150] Setting up conv2
I0218 17:37:33.158993 26599 net.cpp:157] Top shape: 100 32 16 16 (819200)
I0218 17:37:33.159003 26599 net.cpp:165] Memory required for data: 27444400
I0218 17:37:33.159028 26599 layer_factory.hpp:77] Creating layer relu2
I0218 17:37:33.159054 26599 net.cpp:106] Creating Layer relu2
I0218 17:37:33.159075 26599 net.cpp:454] relu2 <- conv2
I0218 17:37:33.159088 26599 net.cpp:397] relu2 -> conv2 (in-place)
I0218 17:37:33.160001 26599 net.cpp:150] Setting up relu2
I0218 17:37:33.160023 26599 net.cpp:157] Top shape: 100 32 16 16 (819200)
I0218 17:37:33.160034 26599 net.cpp:165] Memory required for data: 30721200
I0218 17:37:33.160043 26599 layer_factory.hpp:77] Creating layer pool2
I0218 17:37:33.160056 26599 net.cpp:106] Creating Layer pool2
I0218 17:37:33.160065 26599 net.cpp:454] pool2 <- conv2
I0218 17:37:33.160076 26599 net.cpp:411] pool2 -> pool2
I0218 17:37:33.160996 26599 net.cpp:150] Setting up pool2
I0218 17:37:33.161020 26599 net.cpp:157] Top shape: 100 32 8 8 (204800)
I0218 17:37:33.161028 26599 net.cpp:165] Memory required for data: 31540400
I0218 17:37:33.161036 26599 layer_factory.hpp:77] Creating layer norm2
I0218 17:37:33.161052 26599 net.cpp:106] Creating Layer norm2
I0218 17:37:33.161062 26599 net.cpp:454] norm2 <- pool2
I0218 17:37:33.161072 26599 net.cpp:411] norm2 -> norm2
I0218 17:37:33.162420 26599 net.cpp:150] Setting up norm2
I0218 17:37:33.162444 26599 net.cpp:157] Top shape: 100 32 8 8 (204800)
I0218 17:37:33.162453 26599 net.cpp:165] Memory required for data: 32359600
I0218 17:37:33.162461 26599 layer_factory.hpp:77] Creating layer conv3
I0218 17:37:33.162480 26599 net.cpp:106] Creating Layer conv3
I0218 17:37:33.162492 26599 net.cpp:454] conv3 <- norm2
I0218 17:37:33.162506 26599 net.cpp:411] conv3 -> conv3
I0218 17:37:33.167462 26599 net.cpp:150] Setting up conv3
I0218 17:37:33.167501 26599 net.cpp:157] Top shape: 100 64 8 8 (409600)
I0218 17:37:33.167513 26599 net.cpp:165] Memory required for data: 33998000
I0218 17:37:33.167534 26599 layer_factory.hpp:77] Creating layer relu3
I0218 17:37:33.167558 26599 net.cpp:106] Creating Layer relu3
I0218 17:37:33.167570 26599 net.cpp:454] relu3 <- conv3
I0218 17:37:33.167582 26599 net.cpp:397] relu3 -> conv3 (in-place)
I0218 17:37:33.168464 26599 net.cpp:150] Setting up relu3
I0218 17:37:33.168488 26599 net.cpp:157] Top shape: 100 64 8 8 (409600)
I0218 17:37:33.168498 26599 net.cpp:165] Memory required for data: 35636400
I0218 17:37:33.168505 26599 layer_factory.hpp:77] Creating layer pool3
I0218 17:37:33.168519 26599 net.cpp:106] Creating Layer pool3
I0218 17:37:33.168526 26599 net.cpp:454] pool3 <- conv3
I0218 17:37:33.168540 26599 net.cpp:411] pool3 -> pool3
I0218 17:37:33.169457 26599 net.cpp:150] Setting up pool3
I0218 17:37:33.169479 26599 net.cpp:157] Top shape: 100 64 4 4 (102400)
I0218 17:37:33.169489 26599 net.cpp:165] Memory required for data: 36046000
I0218 17:37:33.169497 26599 layer_factory.hpp:77] Creating layer ip1
I0218 17:37:33.169513 26599 net.cpp:106] Creating Layer ip1
I0218 17:37:33.169523 26599 net.cpp:454] ip1 <- pool3
I0218 17:37:33.169538 26599 net.cpp:411] ip1 -> ip1
I0218 17:37:33.187160 26599 net.cpp:150] Setting up ip1
I0218 17:37:33.187211 26599 net.cpp:157] Top shape: 100 500 (50000)
I0218 17:37:33.187223 26599 net.cpp:165] Memory required for data: 36246000
I0218 17:37:33.187240 26599 layer_factory.hpp:77] Creating layer relu4
I0218 17:37:33.187258 26599 net.cpp:106] Creating Layer relu4
I0218 17:37:33.187268 26599 net.cpp:454] relu4 <- ip1
I0218 17:37:33.187280 26599 net.cpp:397] relu4 -> ip1 (in-place)
I0218 17:37:33.188345 26599 net.cpp:150] Setting up relu4
I0218 17:37:33.188367 26599 net.cpp:157] Top shape: 100 500 (50000)
I0218 17:37:33.188377 26599 net.cpp:165] Memory required for data: 36446000
I0218 17:37:33.188385 26599 layer_factory.hpp:77] Creating layer ip2
I0218 17:37:33.188401 26599 net.cpp:106] Creating Layer ip2
I0218 17:37:33.188411 26599 net.cpp:454] ip2 <- ip1
I0218 17:37:33.188423 26599 net.cpp:411] ip2 -> ip2
I0218 17:37:33.188804 26599 net.cpp:150] Setting up ip2
I0218 17:37:33.188824 26599 net.cpp:157] Top shape: 100 10 (1000)
I0218 17:37:33.188834 26599 net.cpp:165] Memory required for data: 36450000
I0218 17:37:33.188854 26599 layer_factory.hpp:77] Creating layer ip2_ip2_0_split
I0218 17:37:33.188873 26599 net.cpp:106] Creating Layer ip2_ip2_0_split
I0218 17:37:33.188894 26599 net.cpp:454] ip2_ip2_0_split <- ip2
I0218 17:37:33.188930 26599 net.cpp:411] ip2_ip2_0_split -> ip2_ip2_0_split_0
I0218 17:37:33.188946 26599 net.cpp:411] ip2_ip2_0_split -> ip2_ip2_0_split_1
I0218 17:37:33.189018 26599 net.cpp:150] Setting up ip2_ip2_0_split
I0218 17:37:33.189033 26599 net.cpp:157] Top shape: 100 10 (1000)
I0218 17:37:33.189043 26599 net.cpp:157] Top shape: 100 10 (1000)
I0218 17:37:33.189049 26599 net.cpp:165] Memory required for data: 36458000
I0218 17:37:33.189055 26599 layer_factory.hpp:77] Creating layer accuracy
I0218 17:37:33.189069 26599 net.cpp:106] Creating Layer accuracy
I0218 17:37:33.189079 26599 net.cpp:454] accuracy <- ip2_ip2_0_split_0
I0218 17:37:33.189086 26599 net.cpp:454] accuracy <- label_cifar_1_split_0
I0218 17:37:33.189097 26599 net.cpp:411] accuracy -> accuracy
…
