…
I0218 17:33:44.558042 26392 net.cpp:322] The NetState phase (0) differed from the phase (1) specified by a rule in layer cifar
I0218 17:33:44.558061 26392 net.cpp:322] The NetState phase (0) differed from the phase (1) specified by a rule in layer accuracy
I0218 17:33:44.558163 26392 net.cpp:49] Initializing net from parameters: 
name: "CIFAR10_full"
state {
  phase: TRAIN
}
layer {
  name: "cifar"
  type: "Data"
  top: "data"
  top: "label"
  include {
    phase: TRAIN
  }
  transform_param {
    mean_file: "examples/cifar10/mean.binaryproto"
  }
  data_param {
    source: "examples/cifar10/cifar10_train_lmdb"
    batch_size: 100
    backend: LMDB
  }
}
layer {
  name: "conv1"
  type: "Convolution"
  bottom: "data"
  top: "conv1"
  param {
    lr_mult: 1
  }
  param {
    lr_mult: 2
  }
  convolution_param {
    num_output: 32
    pad: 2
    kernel_size: 5
    stride: 1
    weight_filler {
      type: "gaussian"
      std: 0.0001
    }
    bias_filler {
      type: "constant"
    }
  }
}
layer {
  name: "pool1"
  type: "Pooling"
  bottom: "conv1"
  top: "pool1"
  pooling_param {
    pool: MAX
    kernel_size: 3
    stride: 2
  }
}
layer {
  name: "relu1"
  type: "ReLU"
  bottom: "pool1"
  top: "pool1"
}
layer {
  name: "norm1"
  type: "LRN"
  bottom: "pool1"
  top: "norm1"
  lrn_param {
    local_size: 3
    alpha: 5e-05
    beta: 0.75
    norm_region: WITHIN_CHANNEL
  }
}
layer {
  name: "conv2"
  type: "Convolution"
  bottom: "norm1"
  top: "conv2"
  param {
    lr_mult: 1
  }
  param {
    lr_mult: 2
  }
  convolution_param {
    num_output: 32
    pad: 2
    kernel_size: 5
    stride: 1
    weight_filler {
      type: "gaussian"
      std: 0.01
    }
    bias_filler {
      type: "constant"
    }
  }
}
layer {
  name: "relu2"
  type: "ReLU"
  bottom: "conv2"
  top: "conv2"
}
layer {
  name: "pool2"
  type: "Pooling"
  bottom: "conv2"
  top: "pool2"
  pooling_param {
    pool: AVE
    kernel_size: 3
    stride: 2
  }
}
layer {
  name: "norm2"
  type: "LRN"
  bottom: "pool2"
  top: "norm2"
  lrn_param {
    local_size: 3
    alpha: 5e-05
    beta: 0.75
    norm_region: WITHIN_CHANNEL
  }
}
layer {
  name: "conv3"
  type: "Convolution"
  bottom: "norm2"
  top: "conv3"
  convolution_param {
    num_output: 64
    pad: 2
    kernel_size: 5
    stride: 1
    weight_filler {
      type: "gaussian"
      std: 0.01
    }
    bias_filler {
      type: "constant"
    }
  }
}
layer {
  name: "relu3"
  type: "ReLU"
  bottom: "conv3"
  top: "conv3"
}
layer {
  name: "pool3"
  type: "Pooling"
  bottom: "conv3"
  top: "pool3"
  pooling_param {
    pool: AVE
    kernel_size: 3
    stride: 2
  }
}
layer {
  name: "ip1"
  type: "InnerProduct"
  bottom: "pool3"
  top: "ip1"
  param {
    lr_mult: 1
  }
  param {
    lr_mult: 2
    decay_mult: 0
  }
  inner_product_param {
    num_output: 500
    weight_filler {
      type: "gaussian"
      std: 0.01
    }
    bias_filler {
      type: "constant"
    }
  }
}
layer {
  name: "relu4"
  type: "ReLU"
  bottom: "ip1"
  top: "ip1"
}
layer {
  name: "push1"
  type: "Pushin"
  bottom: "ip1"
  top: "ip1"
  pushin_param {
    pushin_ratio: 0.2
  }
}
layer {
  name: "ip2"
  type: "InnerProduct"
  bottom: "ip1"
  top: "ip2"
  param {
    lr_mult: 1
    decay_mult: 250
  }
  param {
    lr_mult: 2
    decay_mult: 0
  }
  inner_product_param {
    num_output: 10
    weight_filler {
      type: "gaussian"
      std: 0.01
    }
    bias_filler {
      type: "constant"
    }
  }
}
layer {
  name: "loss"
  type: "SoftmaxWithLoss"
  bottom: "ip2"
  bottom: "label"
  top: "loss"
}
I0218 17:33:44.558248 26392 layer_factory.hpp:77] Creating layer cifar
I0218 17:33:44.559608 26392 net.cpp:106] Creating Layer cifar
I0218 17:33:44.559624 26392 net.cpp:411] cifar -> data
I0218 17:33:44.559645 26392 net.cpp:411] cifar -> label
I0218 17:33:44.559664 26392 data_transformer.cpp:25] Loading mean file from: examples/cifar10/mean.binaryproto
I0218 17:33:44.560606 26396 db_lmdb.cpp:38] Opened lmdb examples/cifar10/cifar10_train_lmdb
I0218 17:33:44.560677 26392 data_layer.cpp:41] output data size: 100,3,32,32
I0218 17:33:44.562494 26392 net.cpp:150] Setting up cifar
I0218 17:33:44.562521 26392 net.cpp:157] Top shape: 100 3 32 32 (307200)
I0218 17:33:44.562526 26392 net.cpp:157] Top shape: 100 (100)
I0218 17:33:44.562530 26392 net.cpp:165] Memory required for data: 1229200
I0218 17:33:44.562539 26392 layer_factory.hpp:77] Creating layer conv1
I0218 17:33:44.562557 26392 net.cpp:106] Creating Layer conv1
I0218 17:33:44.562564 26392 net.cpp:454] conv1 <- data
I0218 17:33:44.562577 26392 net.cpp:411] conv1 -> conv1
I0218 17:33:44.688562 26392 net.cpp:150] Setting up conv1
I0218 17:33:44.688598 26392 net.cpp:157] Top shape: 100 32 32 32 (3276800)
I0218 17:33:44.688604 26392 net.cpp:165] Memory required for data: 14336400
I0218 17:33:44.688622 26392 layer_factory.hpp:77] Creating layer pool1
I0218 17:33:44.688635 26392 net.cpp:106] Creating Layer pool1
I0218 17:33:44.688640 26392 net.cpp:454] pool1 <- conv1
I0218 17:33:44.688647 26392 net.cpp:411] pool1 -> pool1
I0218 17:33:44.689183 26392 net.cpp:150] Setting up pool1
I0218 17:33:44.689198 26392 net.cpp:157] Top shape: 100 32 16 16 (819200)
I0218 17:33:44.689203 26392 net.cpp:165] Memory required for data: 17613200
I0218 17:33:44.689206 26392 layer_factory.hpp:77] Creating layer relu1
I0218 17:33:44.689213 26392 net.cpp:106] Creating Layer relu1
I0218 17:33:44.689218 26392 net.cpp:454] relu1 <- pool1
I0218 17:33:44.689223 26392 net.cpp:397] relu1 -> pool1 (in-place)
I0218 17:33:44.689707 26392 net.cpp:150] Setting up relu1
I0218 17:33:44.689718 26392 net.cpp:157] Top shape: 100 32 16 16 (819200)
I0218 17:33:44.689723 26392 net.cpp:165] Memory required for data: 20890000
I0218 17:33:44.689728 26392 layer_factory.hpp:77] Creating layer norm1
I0218 17:33:44.689738 26392 net.cpp:106] Creating Layer norm1
I0218 17:33:44.689743 26392 net.cpp:454] norm1 <- pool1
I0218 17:33:44.689749 26392 net.cpp:411] norm1 -> norm1
I0218 17:33:44.690443 26392 net.cpp:150] Setting up norm1
I0218 17:33:44.690457 26392 net.cpp:157] Top shape: 100 32 16 16 (819200)
I0218 17:33:44.690461 26392 net.cpp:165] Memory required for data: 24166800
I0218 17:33:44.690466 26392 layer_factory.hpp:77] Creating layer conv2
I0218 17:33:44.690475 26392 net.cpp:106] Creating Layer conv2
I0218 17:33:44.690479 26392 net.cpp:454] conv2 <- norm1
I0218 17:33:44.690486 26392 net.cpp:411] conv2 -> conv2
I0218 17:33:44.692921 26392 net.cpp:150] Setting up conv2
I0218 17:33:44.692946 26392 net.cpp:157] Top shape: 100 32 16 16 (819200)
I0218 17:33:44.692951 26392 net.cpp:165] Memory required for data: 27443600
I0218 17:33:44.692962 26392 layer_factory.hpp:77] Creating layer relu2
I0218 17:33:44.692971 26392 net.cpp:106] Creating Layer relu2
I0218 17:33:44.692976 26392 net.cpp:454] relu2 <- conv2
I0218 17:33:44.692982 26392 net.cpp:397] relu2 -> conv2 (in-place)
I0218 17:33:44.693480 26392 net.cpp:150] Setting up relu2
I0218 17:33:44.693491 26392 net.cpp:157] Top shape: 100 32 16 16 (819200)
I0218 17:33:44.693496 26392 net.cpp:165] Memory required for data: 30720400
I0218 17:33:44.693500 26392 layer_factory.hpp:77] Creating layer pool2
I0218 17:33:44.693507 26392 net.cpp:106] Creating Layer pool2
I0218 17:33:44.693511 26392 net.cpp:454] pool2 <- conv2
I0218 17:33:44.693517 26392 net.cpp:411] pool2 -> pool2
I0218 17:33:44.694007 26392 net.cpp:150] Setting up pool2
I0218 17:33:44.694020 26392 net.cpp:157] Top shape: 100 32 8 8 (204800)
I0218 17:33:44.694025 26392 net.cpp:165] Memory required for data: 31539600
I0218 17:33:44.694028 26392 layer_factory.hpp:77] Creating layer norm2
I0218 17:33:44.694038 26392 net.cpp:106] Creating Layer norm2
I0218 17:33:44.694053 26392 net.cpp:454] norm2 <- pool2
I0218 17:33:44.694068 26392 net.cpp:411] norm2 -> norm2
I0218 17:33:44.694730 26392 net.cpp:150] Setting up norm2
I0218 17:33:44.694743 26392 net.cpp:157] Top shape: 100 32 8 8 (204800)
I0218 17:33:44.694747 26392 net.cpp:165] Memory required for data: 32358800
I0218 17:33:44.694752 26392 layer_factory.hpp:77] Creating layer conv3
I0218 17:33:44.694761 26392 net.cpp:106] Creating Layer conv3
I0218 17:33:44.694766 26392 net.cpp:454] conv3 <- norm2
I0218 17:33:44.694772 26392 net.cpp:411] conv3 -> conv3
I0218 17:33:44.697602 26392 net.cpp:150] Setting up conv3
I0218 17:33:44.697628 26392 net.cpp:157] Top shape: 100 64 8 8 (409600)
I0218 17:33:44.697633 26392 net.cpp:165] Memory required for data: 33997200
I0218 17:33:44.697644 26392 layer_factory.hpp:77] Creating layer relu3
I0218 17:33:44.697654 26392 net.cpp:106] Creating Layer relu3
I0218 17:33:44.697657 26392 net.cpp:454] relu3 <- conv3
I0218 17:33:44.697664 26392 net.cpp:397] relu3 -> conv3 (in-place)
I0218 17:33:44.698165 26392 net.cpp:150] Setting up relu3
I0218 17:33:44.698178 26392 net.cpp:157] Top shape: 100 64 8 8 (409600)
I0218 17:33:44.698182 26392 net.cpp:165] Memory required for data: 35635600
I0218 17:33:44.698186 26392 layer_factory.hpp:77] Creating layer pool3
I0218 17:33:44.698194 26392 net.cpp:106] Creating Layer pool3
I0218 17:33:44.698197 26392 net.cpp:454] pool3 <- conv3
I0218 17:33:44.698204 26392 net.cpp:411] pool3 -> pool3
I0218 17:33:44.698688 26392 net.cpp:150] Setting up pool3
I0218 17:33:44.698699 26392 net.cpp:157] Top shape: 100 64 4 4 (102400)
I0218 17:33:44.698704 26392 net.cpp:165] Memory required for data: 36045200
I0218 17:33:44.698707 26392 layer_factory.hpp:77] Creating layer ip1
I0218 17:33:44.698715 26392 net.cpp:106] Creating Layer ip1
I0218 17:33:44.698719 26392 net.cpp:454] ip1 <- pool3
I0218 17:33:44.698725 26392 net.cpp:411] ip1 -> ip1
I0218 17:33:44.711213 26392 net.cpp:150] Setting up ip1
I0218 17:33:44.711244 26392 net.cpp:157] Top shape: 100 500 (50000)
I0218 17:33:44.711248 26392 net.cpp:165] Memory required for data: 36245200
I0218 17:33:44.711257 26392 layer_factory.hpp:77] Creating layer relu4
I0218 17:33:44.711266 26392 net.cpp:106] Creating Layer relu4
I0218 17:33:44.711272 26392 net.cpp:454] relu4 <- ip1
I0218 17:33:44.711278 26392 net.cpp:397] relu4 -> ip1 (in-place)
I0218 17:33:44.711894 26392 net.cpp:150] Setting up relu4
I0218 17:33:44.711908 26392 net.cpp:157] Top shape: 100 500 (50000)
I0218 17:33:44.711912 26392 net.cpp:165] Memory required for data: 36445200
I0218 17:33:44.711916 26392 layer_factory.hpp:77] Creating layer push1
I0218 17:33:44.711923 26392 net.cpp:106] Creating Layer push1
I0218 17:33:44.711927 26392 net.cpp:454] push1 <- ip1
I0218 17:33:44.711933 26392 net.cpp:397] push1 -> ip1 (in-place)
INITIAL threshold_ : 0.2
INITIAL st_count: 10000
I0218 17:33:44.711978 26392 net.cpp:150] Setting up push1
I0218 17:33:44.711985 26392 net.cpp:157] Top shape: 100 500 (50000)
I0218 17:33:44.711988 26392 net.cpp:165] Memory required for data: 36645200
I0218 17:33:44.711992 26392 layer_factory.hpp:77] Creating layer ip2
I0218 17:33:44.712000 26392 net.cpp:106] Creating Layer ip2
I0218 17:33:44.712003 26392 net.cpp:454] ip2 <- ip1
I0218 17:33:44.712009 26392 net.cpp:411] ip2 -> ip2
I0218 17:33:44.712146 26392 net.cpp:150] Setting up ip2
I0218 17:33:44.712152 26392 net.cpp:157] Top shape: 100 10 (1000)
I0218 17:33:44.712155 26392 net.cpp:165] Memory required for data: 36649200
I0218 17:33:44.712165 26392 layer_factory.hpp:77] Creating layer loss
I0218 17:33:44.712174 26392 net.cpp:106] Creating Layer loss
I0218 17:33:44.712178 26392 net.cpp:454] loss <- ip2
I0218 17:33:44.712182 26392 net.cpp:454] loss <- label
I0218 17:33:44.712189 26392 net.cpp:411] loss -> loss
I0218 17:33:44.712198 26392 layer_factory.hpp:77] Creating layer loss
…
I0218 17:33:44.713269 26392 solver.cpp:181] Creating test net (#0) specified by net file: examples/cifar10/jungwoo_full_train_test.prototxt
I0218 17:33:44.713306 26392 net.cpp:322] The NetState phase (1) differed from the phase (0) specified by a rule in layer cifar
I0218 17:33:44.713415 26392 net.cpp:49] Initializing net from parameters: 
name: "CIFAR10_full"
state {
  phase: TEST
}
layer {
  name: "cifar"
  type: "Data"
  top: "data"
  top: "label"
  include {
    phase: TEST
  }
  transform_param {
    mean_file: "examples/cifar10/mean.binaryproto"
  }
  data_param {
    source: "examples/cifar10/cifar10_test_lmdb"
    batch_size: 100
    backend: LMDB
  }
}
layer {
  name: "conv1"
  type: "Convolution"
  bottom: "data"
  top: "conv1"
  param {
    lr_mult: 1
  }
  param {
    lr_mult: 2
  }
  convolution_param {
    num_output: 32
    pad: 2
    kernel_size: 5
    stride: 1
    weight_filler {
      type: "gaussian"
      std: 0.0001
    }
    bias_filler {
      type: "constant"
    }
  }
}
layer {
  name: "pool1"
  type: "Pooling"
  bottom: "conv1"
  top: "pool1"
  pooling_param {
    pool: MAX
    kernel_size: 3
    stride: 2
  }
}
layer {
  name: "relu1"
  type: "ReLU"
  bottom: "pool1"
  top: "pool1"
}
layer {
  name: "norm1"
  type: "LRN"
  bottom: "pool1"
  top: "norm1"
  lrn_param {
    local_size: 3
    alpha: 5e-05
    beta: 0.75
    norm_region: WITHIN_CHANNEL
  }
}
layer {
  name: "conv2"
  type: "Convolution"
  bottom: "norm1"
  top: "conv2"
  param {
    lr_mult: 1
  }
  param {
    lr_mult: 2
  }
  convolution_param {
    num_output: 32
    pad: 2
    kernel_size: 5
    stride: 1
    weight_filler {
      type: "gaussian"
      std: 0.01
    }
    bias_filler {
      type: "constant"
    }
  }
}
layer {
  name: "relu2"
  type: "ReLU"
  bottom: "conv2"
  top: "conv2"
}
layer {
  name: "pool2"
  type: "Pooling"
  bottom: "conv2"
  top: "pool2"
  pooling_param {
    pool: AVE
    kernel_size: 3
    stride: 2
  }
}
layer {
  name: "norm2"
  type: "LRN"
  bottom: "pool2"
  top: "norm2"
  lrn_param {
    local_size: 3
    alpha: 5e-05
    beta: 0.75
    norm_region: WITHIN_CHANNEL
  }
}
layer {
  name: "conv3"
  type: "Convolution"
  bottom: "norm2"
  top: "conv3"
  convolution_param {
    num_output: 64
    pad: 2
    kernel_size: 5
    stride: 1
    weight_filler {
      type: "gaussian"
      std: 0.01
    }
    bias_filler {
      type: "constant"
    }
  }
}
layer {
  name: "relu3"
  type: "ReLU"
  bottom: "conv3"
  top: "conv3"
}
layer {
  name: "pool3"
  type: "Pooling"
  bottom: "conv3"
  top: "pool3"
  pooling_param {
    pool: AVE
    kernel_size: 3
    stride: 2
  }
}
layer {
  name: "ip1"
  type: "InnerProduct"
  bottom: "pool3"
  top: "ip1"
  param {
    lr_mult: 1
  }
  param {
    lr_mult: 2
    decay_mult: 0
  }
  inner_product_param {
    num_output: 500
    weight_filler {
      type: "gaussian"
      std: 0.01
    }
    bias_filler {
      type: "constant"
    }
  }
}
layer {
  name: "relu4"
  type: "ReLU"
  bottom: "ip1"
  top: "ip1"
}
layer {
  name: "push1"
  type: "Pushin"
  bottom: "ip1"
  top: "ip1"
  pushin_param {
    pushin_ratio: 0.2
  }
}
layer {
  name: "ip2"
  type: "InnerProduct"
  bottom: "ip1"
  top: "ip2"
  param {
    lr_mult: 1
    decay_mult: 250
  }
  param {
    lr_mult: 2
    decay_mult: 0
  }
  inner_product_param {
    num_output: 10
    weight_filler {
      type: "gaussian"
      std: 0.01
    }
    bias_filler {
      type: "constant"
    }
  }
}
layer {
  name: "accuracy"
  type: "Accuracy"
  bottom: "ip2"
  bottom: "label"
  top: "accuracy"
  include {
    phase: TEST
  }
}
layer {
  name: "loss"
  type: "SoftmaxWithLoss"
  bottom: "ip2"
  bottom: "label"
  top: "loss"
}
I0218 17:33:44.713506 26392 layer_factory.hpp:77] Creating layer cifar
I0218 17:33:44.713603 26392 net.cpp:106] Creating Layer cifar
I0218 17:33:44.713613 26392 net.cpp:411] cifar -> data
I0218 17:33:44.713623 26392 net.cpp:411] cifar -> label
I0218 17:33:44.713631 26392 data_transformer.cpp:25] Loading mean file from: examples/cifar10/mean.binaryproto
I0218 17:33:44.714604 26398 db_lmdb.cpp:38] Opened lmdb examples/cifar10/cifar10_test_lmdb
I0218 17:33:44.714653 26392 data_layer.cpp:41] output data size: 100,3,32,32
I0218 17:33:44.715955 26392 net.cpp:150] Setting up cifar
I0218 17:33:44.715976 26392 net.cpp:157] Top shape: 100 3 32 32 (307200)
I0218 17:33:44.715982 26392 net.cpp:157] Top shape: 100 (100)
I0218 17:33:44.715986 26392 net.cpp:165] Memory required for data: 1229200
I0218 17:33:44.715992 26392 layer_factory.hpp:77] Creating layer label_cifar_1_split
I0218 17:33:44.716003 26392 net.cpp:106] Creating Layer label_cifar_1_split
I0218 17:33:44.716008 26392 net.cpp:454] label_cifar_1_split <- label
I0218 17:33:44.716017 26392 net.cpp:411] label_cifar_1_split -> label_cifar_1_split_0
I0218 17:33:44.716025 26392 net.cpp:411] label_cifar_1_split -> label_cifar_1_split_1
I0218 17:33:44.716034 26392 net.cpp:150] Setting up label_cifar_1_split
I0218 17:33:44.716040 26392 net.cpp:157] Top shape: 100 (100)
I0218 17:33:44.716044 26392 net.cpp:157] Top shape: 100 (100)
I0218 17:33:44.716048 26392 net.cpp:165] Memory required for data: 1230000
I0218 17:33:44.716051 26392 layer_factory.hpp:77] Creating layer conv1
I0218 17:33:44.716061 26392 net.cpp:106] Creating Layer conv1
I0218 17:33:44.716065 26392 net.cpp:454] conv1 <- data
I0218 17:33:44.716071 26392 net.cpp:411] conv1 -> conv1
I0218 17:33:44.717968 26392 net.cpp:150] Setting up conv1
I0218 17:33:44.717988 26392 net.cpp:157] Top shape: 100 32 32 32 (3276800)
I0218 17:33:44.717993 26392 net.cpp:165] Memory required for data: 14337200
I0218 17:33:44.718014 26392 layer_factory.hpp:77] Creating layer pool1
I0218 17:33:44.718022 26392 net.cpp:106] Creating Layer pool1
I0218 17:33:44.718027 26392 net.cpp:454] pool1 <- conv1
I0218 17:33:44.718034 26392 net.cpp:411] pool1 -> pool1
I0218 17:33:44.718547 26392 net.cpp:150] Setting up pool1
I0218 17:33:44.718560 26392 net.cpp:157] Top shape: 100 32 16 16 (819200)
I0218 17:33:44.718565 26392 net.cpp:165] Memory required for data: 17614000
I0218 17:33:44.718569 26392 layer_factory.hpp:77] Creating layer relu1
I0218 17:33:44.718577 26392 net.cpp:106] Creating Layer relu1
I0218 17:33:44.718581 26392 net.cpp:454] relu1 <- pool1
I0218 17:33:44.718587 26392 net.cpp:397] relu1 -> pool1 (in-place)
I0218 17:33:44.719089 26392 net.cpp:150] Setting up relu1
I0218 17:33:44.719102 26392 net.cpp:157] Top shape: 100 32 16 16 (819200)
I0218 17:33:44.719115 26392 net.cpp:165] Memory required for data: 20890800
I0218 17:33:44.719120 26392 layer_factory.hpp:77] Creating layer norm1
I0218 17:33:44.719128 26392 net.cpp:106] Creating Layer norm1
I0218 17:33:44.719132 26392 net.cpp:454] norm1 <- pool1
I0218 17:33:44.719146 26392 net.cpp:411] norm1 -> norm1
I0218 17:33:44.719874 26392 net.cpp:150] Setting up norm1
I0218 17:33:44.719895 26392 net.cpp:157] Top shape: 100 32 16 16 (819200)
I0218 17:33:44.719900 26392 net.cpp:165] Memory required for data: 24167600
I0218 17:33:44.719904 26392 layer_factory.hpp:77] Creating layer conv2
I0218 17:33:44.719915 26392 net.cpp:106] Creating Layer conv2
I0218 17:33:44.719920 26392 net.cpp:454] conv2 <- norm1
I0218 17:33:44.719926 26392 net.cpp:411] conv2 -> conv2
I0218 17:33:44.722460 26392 net.cpp:150] Setting up conv2
I0218 17:33:44.722486 26392 net.cpp:157] Top shape: 100 32 16 16 (819200)
I0218 17:33:44.722489 26392 net.cpp:165] Memory required for data: 27444400
I0218 17:33:44.722501 26392 layer_factory.hpp:77] Creating layer relu2
I0218 17:33:44.722511 26392 net.cpp:106] Creating Layer relu2
I0218 17:33:44.722514 26392 net.cpp:454] relu2 <- conv2
I0218 17:33:44.722522 26392 net.cpp:397] relu2 -> conv2 (in-place)
I0218 17:33:44.723079 26392 net.cpp:150] Setting up relu2
I0218 17:33:44.723093 26392 net.cpp:157] Top shape: 100 32 16 16 (819200)
I0218 17:33:44.723098 26392 net.cpp:165] Memory required for data: 30721200
I0218 17:33:44.723101 26392 layer_factory.hpp:77] Creating layer pool2
I0218 17:33:44.723110 26392 net.cpp:106] Creating Layer pool2
I0218 17:33:44.723115 26392 net.cpp:454] pool2 <- conv2
I0218 17:33:44.723121 26392 net.cpp:411] pool2 -> pool2
I0218 17:33:44.723681 26392 net.cpp:150] Setting up pool2
I0218 17:33:44.723695 26392 net.cpp:157] Top shape: 100 32 8 8 (204800)
I0218 17:33:44.723700 26392 net.cpp:165] Memory required for data: 31540400
I0218 17:33:44.723703 26392 layer_factory.hpp:77] Creating layer norm2
I0218 17:33:44.723712 26392 net.cpp:106] Creating Layer norm2
I0218 17:33:44.723717 26392 net.cpp:454] norm2 <- pool2
I0218 17:33:44.723722 26392 net.cpp:411] norm2 -> norm2
I0218 17:33:44.724452 26392 net.cpp:150] Setting up norm2
I0218 17:33:44.724465 26392 net.cpp:157] Top shape: 100 32 8 8 (204800)
I0218 17:33:44.724469 26392 net.cpp:165] Memory required for data: 32359600
I0218 17:33:44.724473 26392 layer_factory.hpp:77] Creating layer conv3
I0218 17:33:44.724484 26392 net.cpp:106] Creating Layer conv3
I0218 17:33:44.724488 26392 net.cpp:454] conv3 <- norm2
I0218 17:33:44.724494 26392 net.cpp:411] conv3 -> conv3
I0218 17:33:44.727622 26392 net.cpp:150] Setting up conv3
I0218 17:33:44.727640 26392 net.cpp:157] Top shape: 100 64 8 8 (409600)
I0218 17:33:44.727644 26392 net.cpp:165] Memory required for data: 33998000
I0218 17:33:44.727655 26392 layer_factory.hpp:77] Creating layer relu3
I0218 17:33:44.727663 26392 net.cpp:106] Creating Layer relu3
I0218 17:33:44.727668 26392 net.cpp:454] relu3 <- conv3
I0218 17:33:44.727675 26392 net.cpp:397] relu3 -> conv3 (in-place)
I0218 17:33:44.728236 26392 net.cpp:150] Setting up relu3
I0218 17:33:44.728250 26392 net.cpp:157] Top shape: 100 64 8 8 (409600)
I0218 17:33:44.728255 26392 net.cpp:165] Memory required for data: 35636400
I0218 17:33:44.728258 26392 layer_factory.hpp:77] Creating layer pool3
I0218 17:33:44.728266 26392 net.cpp:106] Creating Layer pool3
I0218 17:33:44.728271 26392 net.cpp:454] pool3 <- conv3
I0218 17:33:44.728276 26392 net.cpp:411] pool3 -> pool3
I0218 17:33:44.728828 26392 net.cpp:150] Setting up pool3
I0218 17:33:44.728842 26392 net.cpp:157] Top shape: 100 64 4 4 (102400)
I0218 17:33:44.728845 26392 net.cpp:165] Memory required for data: 36046000
I0218 17:33:44.728849 26392 layer_factory.hpp:77] Creating layer ip1
I0218 17:33:44.728858 26392 net.cpp:106] Creating Layer ip1
I0218 17:33:44.728863 26392 net.cpp:454] ip1 <- pool3
I0218 17:33:44.728868 26392 net.cpp:411] ip1 -> ip1
I0218 17:33:44.741737 26392 net.cpp:150] Setting up ip1
I0218 17:33:44.741771 26392 net.cpp:157] Top shape: 100 500 (50000)
I0218 17:33:44.741775 26392 net.cpp:165] Memory required for data: 36246000
I0218 17:33:44.741785 26392 layer_factory.hpp:77] Creating layer relu4
I0218 17:33:44.741793 26392 net.cpp:106] Creating Layer relu4
I0218 17:33:44.741798 26392 net.cpp:454] relu4 <- ip1
I0218 17:33:44.741806 26392 net.cpp:397] relu4 -> ip1 (in-place)
I0218 17:33:44.742521 26392 net.cpp:150] Setting up relu4
I0218 17:33:44.742542 26392 net.cpp:157] Top shape: 100 500 (50000)
I0218 17:33:44.742547 26392 net.cpp:165] Memory required for data: 36446000
I0218 17:33:44.742550 26392 layer_factory.hpp:77] Creating layer push1
I0218 17:33:44.742558 26392 net.cpp:106] Creating Layer push1
I0218 17:33:44.742563 26392 net.cpp:454] push1 <- ip1
I0218 17:33:44.742568 26392 net.cpp:397] push1 -> ip1 (in-place)
INITIAL threshold_ : 0.2
INITIAL st_count: 10000
I0218 17:33:44.742584 26392 net.cpp:150] Setting up push1
I0218 17:33:44.742590 26392 net.cpp:157] Top shape: 100 500 (50000)
I0218 17:33:44.742594 26392 net.cpp:165] Memory required for data: 36646000
I0218 17:33:44.742597 26392 layer_factory.hpp:77] Creating layer ip2
I0218 17:33:44.742609 26392 net.cpp:106] Creating Layer ip2
I0218 17:33:44.742614 26392 net.cpp:454] ip2 <- ip1
I0218 17:33:44.742619 26392 net.cpp:411] ip2 -> ip2
I0218 17:33:44.742763 26392 net.cpp:150] Setting up ip2
I0218 17:33:44.742769 26392 net.cpp:157] Top shape: 100 10 (1000)
I0218 17:33:44.742772 26392 net.cpp:165] Memory required for data: 36650000
I0218 17:33:44.742782 26392 layer_factory.hpp:77] Creating layer ip2_ip2_0_split
I0218 17:33:44.742789 26392 net.cpp:106] Creating Layer ip2_ip2_0_split
I0218 17:33:44.742794 26392 net.cpp:454] ip2_ip2_0_split <- ip2
I0218 17:33:44.742799 26392 net.cpp:411] ip2_ip2_0_split -> ip2_ip2_0_split_0
I0218 17:33:44.742805 26392 net.cpp:411] ip2_ip2_0_split -> ip2_ip2_0_split_1
I0218 17:33:44.742811 26392 net.cpp:150] Setting up ip2_ip2_0_split
I0218 17:33:44.742816 26392 net.cpp:157] Top shape: 100 10 (1000)
I0218 17:33:44.742820 26392 net.cpp:157] Top shape: 100 10 (1000)
I0218 17:33:44.742823 26392 net.cpp:165] Memory required for data: 36658000
I0218 17:33:44.742826 26392 layer_factory.hpp:77] Creating layer accuracy
I0218 17:33:44.742835 26392 net.cpp:106] Creating Layer accuracy
I0218 17:33:44.742838 26392 net.cpp:454] accuracy <- ip2_ip2_0_split_0
I0218 17:33:44.742842 26392 net.cpp:454] accuracy <- label_cifar_1_split_0
I0218 17:33:44.742848 26392 net.cpp:411] accuracy -> accuracy
…
