…
I0311 14:30:29.386747 31185 net.cpp:322] The NetState phase (0) differed from the phase (1) specified by a rule in layer MLP
I0311 14:30:29.386766 31185 net.cpp:322] The NetState phase (0) differed from the phase (1) specified by a rule in layer accuracy
I0311 14:30:29.386842 31185 net.cpp:49] Initializing net from parameters: 
name: "MLP"
state {
  phase: TRAIN
}
layer {
  name: "mnist"
  type: "Data"
  top: "data"
  top: "label"
  include {
    phase: TRAIN
  }
  transform_param {
    scale: 0.00390625
  }
  data_param {
    source: "examples/mnist/mnist_train_lmdb"
    batch_size: 100
    backend: LMDB
  }
}
layer {
  name: "ip1"
  type: "InnerProduct"
  bottom: "data"
  top: "ip1"
  inner_product_param {
    num_output: 500
    weight_filler {
      type: "xavier"
    }
    bias_filler {
      type: "constant"
    }
  }
}
layer {
  name: "relu1"
  type: "ReLU"
  bottom: "ip1"
  top: "relu1"
}
layer {
  name: "ip2"
  type: "InnerProduct"
  bottom: "relu1"
  top: "ip2"
  inner_product_param {
    num_output: 50
    weight_filler {
      type: "xavier"
    }
    bias_filler {
      type: "constant"
    }
  }
}
layer {
  name: "relu2"
  type: "ReLU"
  bottom: "ip2"
  top: "relu2"
}
layer {
  name: "ip3"
  type: "InnerProduct"
  bottom: "relu2"
  top: "ip3"
  inner_product_param {
    num_output: 10
    weight_filler {
      type: "xavier"
    }
    bias_filler {
      type: "constant"
    }
  }
}
layer {
  name: "loss"
  type: "SoftmaxWithLoss"
  bottom: "ip3"
  bottom: "label"
  top: "loss"
}
I0311 14:30:29.386917 31185 layer_factory.hpp:77] Creating layer mnist
I0311 14:30:29.387586 31185 net.cpp:106] Creating Layer mnist
I0311 14:30:29.387606 31185 net.cpp:411] mnist -> data
I0311 14:30:29.387647 31185 net.cpp:411] mnist -> label
I0311 14:30:29.388568 31189 db_lmdb.cpp:38] Opened lmdb examples/mnist/mnist_train_lmdb
I0311 14:30:29.402503 31185 data_layer.cpp:41] output data size: 100,1,28,28
I0311 14:30:29.404292 31185 net.cpp:150] Setting up mnist
I0311 14:30:29.404321 31185 net.cpp:157] Top shape: 100 1 28 28 (78400)
I0311 14:30:29.404332 31185 net.cpp:157] Top shape: 100 (100)
I0311 14:30:29.404338 31185 net.cpp:165] Memory required for data: 314000
I0311 14:30:29.404351 31185 layer_factory.hpp:77] Creating layer ip1
I0311 14:30:29.404373 31185 net.cpp:106] Creating Layer ip1
I0311 14:30:29.404383 31185 net.cpp:454] ip1 <- data
I0311 14:30:29.404399 31185 net.cpp:411] ip1 -> ip1
I0311 14:30:29.408392 31185 net.cpp:150] Setting up ip1
I0311 14:30:29.408422 31185 net.cpp:157] Top shape: 100 500 (50000)
I0311 14:30:29.408428 31185 net.cpp:165] Memory required for data: 514000
I0311 14:30:29.408464 31185 layer_factory.hpp:77] Creating layer relu1
I0311 14:30:29.408488 31185 net.cpp:106] Creating Layer relu1
I0311 14:30:29.408495 31185 net.cpp:454] relu1 <- ip1
I0311 14:30:29.408506 31185 net.cpp:411] relu1 -> relu1
I0311 14:30:29.581291 31185 net.cpp:150] Setting up relu1
I0311 14:30:29.581334 31185 net.cpp:157] Top shape: 100 500 (50000)
I0311 14:30:29.581344 31185 net.cpp:165] Memory required for data: 714000
I0311 14:30:29.581353 31185 layer_factory.hpp:77] Creating layer ip2
I0311 14:30:29.581368 31185 net.cpp:106] Creating Layer ip2
I0311 14:30:29.581377 31185 net.cpp:454] ip2 <- relu1
I0311 14:30:29.581388 31185 net.cpp:411] ip2 -> ip2
I0311 14:30:29.582193 31185 net.cpp:150] Setting up ip2
I0311 14:30:29.582216 31185 net.cpp:157] Top shape: 100 50 (5000)
I0311 14:30:29.582224 31185 net.cpp:165] Memory required for data: 734000
I0311 14:30:29.582240 31185 layer_factory.hpp:77] Creating layer relu2
I0311 14:30:29.582255 31185 net.cpp:106] Creating Layer relu2
I0311 14:30:29.582285 31185 net.cpp:454] relu2 <- ip2
I0311 14:30:29.582298 31185 net.cpp:411] relu2 -> relu2
I0311 14:30:29.583212 31185 net.cpp:150] Setting up relu2
I0311 14:30:29.583232 31185 net.cpp:157] Top shape: 100 50 (5000)
I0311 14:30:29.583240 31185 net.cpp:165] Memory required for data: 754000
I0311 14:30:29.583246 31185 layer_factory.hpp:77] Creating layer ip3
I0311 14:30:29.583256 31185 net.cpp:106] Creating Layer ip3
I0311 14:30:29.583262 31185 net.cpp:454] ip3 <- relu2
I0311 14:30:29.583271 31185 net.cpp:411] ip3 -> ip3
I0311 14:30:29.583411 31185 net.cpp:150] Setting up ip3
I0311 14:30:29.583427 31185 net.cpp:157] Top shape: 100 10 (1000)
I0311 14:30:29.583434 31185 net.cpp:165] Memory required for data: 758000
I0311 14:30:29.583447 31185 layer_factory.hpp:77] Creating layer loss
I0311 14:30:29.583458 31185 net.cpp:106] Creating Layer loss
I0311 14:30:29.583466 31185 net.cpp:454] loss <- ip3
I0311 14:30:29.583472 31185 net.cpp:454] loss <- label
I0311 14:30:29.583482 31185 net.cpp:411] loss -> loss
I0311 14:30:29.583508 31185 layer_factory.hpp:77] Creating layer loss
…
I0311 14:30:29.584825 31185 solver.cpp:181] Creating test net (#0) specified by net file: examples/mlp/mlp_train_test.prototxt
I0311 14:30:29.584862 31185 net.cpp:322] The NetState phase (1) differed from the phase (0) specified by a rule in layer mnist
I0311 14:30:29.584960 31185 net.cpp:49] Initializing net from parameters: 
name: "MLP"
state {
  phase: TEST
}
layer {
  name: "MLP"
  type: "Data"
  top: "data"
  top: "label"
  include {
    phase: TEST
  }
  transform_param {
    scale: 0.00390625
  }
  data_param {
    source: "examples/mnist/mnist_test_lmdb"
    batch_size: 100
    backend: LMDB
  }
}
layer {
  name: "ip1"
  type: "InnerProduct"
  bottom: "data"
  top: "ip1"
  inner_product_param {
    num_output: 500
    weight_filler {
      type: "xavier"
    }
    bias_filler {
      type: "constant"
    }
  }
}
layer {
  name: "relu1"
  type: "ReLU"
  bottom: "ip1"
  top: "relu1"
}
layer {
  name: "ip2"
  type: "InnerProduct"
  bottom: "relu1"
  top: "ip2"
  inner_product_param {
    num_output: 50
    weight_filler {
      type: "xavier"
    }
    bias_filler {
      type: "constant"
    }
  }
}
layer {
  name: "relu2"
  type: "ReLU"
  bottom: "ip2"
  top: "relu2"
}
layer {
  name: "ip3"
  type: "InnerProduct"
  bottom: "relu2"
  top: "ip3"
  inner_product_param {
    num_output: 10
    weight_filler {
      type: "xavier"
    }
    bias_filler {
      type: "constant"
    }
  }
}
layer {
  name: "accuracy"
  type: "Accuracy"
  bottom: "ip3"
  bottom: "label"
  top: "accuracy"
  include {
    phase: TEST
  }
}
layer {
  name: "loss"
  type: "SoftmaxWithLoss"
  bottom: "ip3"
  bottom: "label"
  top: "loss"
}
I0311 14:30:29.585057 31185 layer_factory.hpp:77] Creating layer MLP
I0311 14:30:29.585204 31185 net.cpp:106] Creating Layer MLP
I0311 14:30:29.585230 31185 net.cpp:411] MLP -> data
I0311 14:30:29.585247 31185 net.cpp:411] MLP -> label
I0311 14:30:29.586174 31191 db_lmdb.cpp:38] Opened lmdb examples/mnist/mnist_test_lmdb
I0311 14:30:29.586323 31185 data_layer.cpp:41] output data size: 100,1,28,28
I0311 14:30:29.587823 31185 net.cpp:150] Setting up MLP
I0311 14:30:29.587870 31185 net.cpp:157] Top shape: 100 1 28 28 (78400)
I0311 14:30:29.587882 31185 net.cpp:157] Top shape: 100 (100)
I0311 14:30:29.587888 31185 net.cpp:165] Memory required for data: 314000
I0311 14:30:29.587894 31185 layer_factory.hpp:77] Creating layer label_MLP_1_split
I0311 14:30:29.587911 31185 net.cpp:106] Creating Layer label_MLP_1_split
I0311 14:30:29.587919 31185 net.cpp:454] label_MLP_1_split <- label
I0311 14:30:29.587929 31185 net.cpp:411] label_MLP_1_split -> label_MLP_1_split_0
I0311 14:30:29.587941 31185 net.cpp:411] label_MLP_1_split -> label_MLP_1_split_1
I0311 14:30:29.587998 31185 net.cpp:150] Setting up label_MLP_1_split
I0311 14:30:29.588012 31185 net.cpp:157] Top shape: 100 (100)
I0311 14:30:29.588019 31185 net.cpp:157] Top shape: 100 (100)
I0311 14:30:29.588026 31185 net.cpp:165] Memory required for data: 314800
I0311 14:30:29.588030 31185 layer_factory.hpp:77] Creating layer ip1
I0311 14:30:29.588044 31185 net.cpp:106] Creating Layer ip1
I0311 14:30:29.588052 31185 net.cpp:454] ip1 <- data
I0311 14:30:29.588062 31185 net.cpp:411] ip1 -> ip1
I0311 14:30:29.591431 31185 net.cpp:150] Setting up ip1
I0311 14:30:29.591470 31185 net.cpp:157] Top shape: 100 500 (50000)
I0311 14:30:29.591482 31185 net.cpp:165] Memory required for data: 514800
I0311 14:30:29.591502 31185 layer_factory.hpp:77] Creating layer relu1
I0311 14:30:29.591519 31185 net.cpp:106] Creating Layer relu1
I0311 14:30:29.591528 31185 net.cpp:454] relu1 <- ip1
I0311 14:30:29.591537 31185 net.cpp:411] relu1 -> relu1
I0311 14:30:29.592751 31185 net.cpp:150] Setting up relu1
I0311 14:30:29.592773 31185 net.cpp:157] Top shape: 100 500 (50000)
I0311 14:30:29.592783 31185 net.cpp:165] Memory required for data: 714800
I0311 14:30:29.592790 31185 layer_factory.hpp:77] Creating layer ip2
I0311 14:30:29.592803 31185 net.cpp:106] Creating Layer ip2
I0311 14:30:29.592809 31185 net.cpp:454] ip2 <- relu1
I0311 14:30:29.592833 31185 net.cpp:411] ip2 -> ip2
I0311 14:30:29.593183 31185 net.cpp:150] Setting up ip2
I0311 14:30:29.593202 31185 net.cpp:157] Top shape: 100 50 (5000)
I0311 14:30:29.593209 31185 net.cpp:165] Memory required for data: 734800
I0311 14:30:29.593222 31185 layer_factory.hpp:77] Creating layer relu2
I0311 14:30:29.593233 31185 net.cpp:106] Creating Layer relu2
I0311 14:30:29.593240 31185 net.cpp:454] relu2 <- ip2
I0311 14:30:29.593251 31185 net.cpp:411] relu2 -> relu2
I0311 14:30:29.594161 31185 net.cpp:150] Setting up relu2
I0311 14:30:29.594180 31185 net.cpp:157] Top shape: 100 50 (5000)
I0311 14:30:29.594187 31185 net.cpp:165] Memory required for data: 754800
I0311 14:30:29.594193 31185 layer_factory.hpp:77] Creating layer ip3
I0311 14:30:29.594203 31185 net.cpp:106] Creating Layer ip3
I0311 14:30:29.594209 31185 net.cpp:454] ip3 <- relu2
I0311 14:30:29.594221 31185 net.cpp:411] ip3 -> ip3
I0311 14:30:29.594383 31185 net.cpp:150] Setting up ip3
I0311 14:30:29.594398 31185 net.cpp:157] Top shape: 100 10 (1000)
I0311 14:30:29.594404 31185 net.cpp:165] Memory required for data: 758800
I0311 14:30:29.594419 31185 layer_factory.hpp:77] Creating layer ip3_ip3_0_split
I0311 14:30:29.594427 31185 net.cpp:106] Creating Layer ip3_ip3_0_split
I0311 14:30:29.594434 31185 net.cpp:454] ip3_ip3_0_split <- ip3
I0311 14:30:29.594441 31185 net.cpp:411] ip3_ip3_0_split -> ip3_ip3_0_split_0
I0311 14:30:29.594450 31185 net.cpp:411] ip3_ip3_0_split -> ip3_ip3_0_split_1
I0311 14:30:29.594503 31185 net.cpp:150] Setting up ip3_ip3_0_split
I0311 14:30:29.594516 31185 net.cpp:157] Top shape: 100 10 (1000)
I0311 14:30:29.594523 31185 net.cpp:157] Top shape: 100 10 (1000)
I0311 14:30:29.594528 31185 net.cpp:165] Memory required for data: 766800
I0311 14:30:29.594533 31185 layer_factory.hpp:77] Creating layer accuracy
I0311 14:30:29.594544 31185 net.cpp:106] Creating Layer accuracy
I0311 14:30:29.594550 31185 net.cpp:454] accuracy <- ip3_ip3_0_split_0
I0311 14:30:29.594558 31185 net.cpp:454] accuracy <- label_MLP_1_split_0
I0311 14:30:29.594568 31185 net.cpp:411] accuracy -> accuracy
…
