…
I0216 13:13:28.911953 23592 net.cpp:322] The NetState phase (0) differed from the phase (1) specified by a rule in layer cifar
I0216 13:13:28.911996 23592 net.cpp:322] The NetState phase (0) differed from the phase (1) specified by a rule in layer accuracy
I0216 13:13:28.912183 23592 net.cpp:49] Initializing net from parameters: 
name: "CIFAR10_full"
state {
  phase: TRAIN
}
layer {
  name: "cifar"
  type: "Data"
  top: "data"
  top: "label"
  include {
    phase: TRAIN
  }
  transform_param {
    mean_file: "examples/cifar10/mean.binaryproto"
  }
  data_param {
    source: "examples/cifar10/cifar10_train_lmdb"
    batch_size: 100
    backend: LMDB
  }
}
layer {
  name: "conv1"
  type: "Convolution"
  bottom: "data"
  top: "conv1"
  param {
    lr_mult: 1
  }
  param {
    lr_mult: 2
  }
  convolution_param {
    num_output: 32
    pad: 2
    kernel_size: 5
    stride: 1
    weight_filler {
      type: "gaussian"
      std: 0.0001
    }
    bias_filler {
      type: "constant"
    }
  }
}
layer {
  name: "pool1"
  type: "Pooling"
  bottom: "conv1"
  top: "pool1"
  pooling_param {
    pool: MAX
    kernel_size: 3
    stride: 2
  }
}
layer {
  name: "relu1"
  type: "ReLU"
  bottom: "pool1"
  top: "pool1"
}
layer {
  name: "norm1"
  type: "LRN"
  bottom: "pool1"
  top: "norm1"
  lrn_param {
    local_size: 3
    alpha: 5e-05
    beta: 0.75
    norm_region: WITHIN_CHANNEL
  }
}
layer {
  name: "conv2"
  type: "Convolution"
  bottom: "norm1"
  top: "conv2"
  param {
    lr_mult: 1
  }
  param {
    lr_mult: 2
  }
  convolution_param {
    num_output: 32
    pad: 2
    kernel_size: 5
    stride: 1
    weight_filler {
      type: "gaussian"
      std: 0.01
    }
    bias_filler {
      type: "constant"
    }
  }
}
layer {
  name: "relu2"
  type: "ReLU"
  bottom: "conv2"
  top: "conv2"
}
layer {
  name: "pool2"
  type: "Pooling"
  bottom: "conv2"
  top: "pool2"
  pooling_param {
    pool: AVE
    kernel_size: 3
    stride: 2
  }
}
layer {
  name: "norm2"
  type: "LRN"
  bottom: "pool2"
  top: "norm2"
  lrn_param {
    local_size: 3
    alpha: 5e-05
    beta: 0.75
    norm_region: WITHIN_CHANNEL
  }
}
layer {
  name: "conv3"
  type: "Convolution"
  bottom: "norm2"
  top: "conv3"
  convolution_param {
    num_output: 64
    pad: 2
    kernel_size: 5
    stride: 1
    weight_filler {
      type: "gaussian"
      std: 0.01
    }
    bias_filler {
      type: "constant"
    }
  }
}
layer {
  name: "relu3"
  type: "ReLU"
  bottom: "conv3"
  top: "conv3"
}
layer {
  name: "pool3"
  type: "Pooling"
  bottom: "conv3"
  top: "pool3"
  pooling_param {
    pool: AVE
    kernel_size: 3
    stride: 2
  }
}
layer {
  name: "ip1"
  type: "InnerProduct"
  bottom: "pool3"
  top: "ip1"
  param {
    lr_mult: 1
  }
  param {
    lr_mult: 2
    decay_mult: 0
  }
  inner_product_param {
    num_output: 500
    weight_filler {
      type: "gaussian"
      std: 0.01
    }
    bias_filler {
      type: "constant"
    }
  }
}
layer {
  name: "relu4"
  type: "ReLU"
  bottom: "ip1"
  top: "ip1"
}
layer {
  name: "push1"
  type: "Pushin"
  bottom: "ip1"
  top: "ip1"
  pushin_param {
    pushin_ratio: 0.2
  }
}
layer {
  name: "ip2"
  type: "InnerProduct"
  bottom: "ip1"
  top: "ip2"
  param {
    lr_mult: 1
    decay_mult: 250
  }
  param {
    lr_mult: 2
    decay_mult: 0
  }
  inner_product_param {
    num_output: 10
    weight_filler {
      type: "gaussian"
      std: 0.01
    }
    bias_filler {
      type: "constant"
    }
  }
}
layer {
  name: "loss"
  type: "SoftmaxWithLoss"
  bottom: "ip2"
  bottom: "label"
  top: "loss"
}
I0216 13:13:28.912322 23592 layer_factory.hpp:77] Creating layer cifar
I0216 13:13:28.914373 23592 net.cpp:106] Creating Layer cifar
I0216 13:13:28.914429 23592 net.cpp:411] cifar -> data
I0216 13:13:28.914470 23592 net.cpp:411] cifar -> label
I0216 13:13:28.914507 23592 data_transformer.cpp:25] Loading mean file from: examples/cifar10/mean.binaryproto
I0216 13:13:28.915392 23596 db_lmdb.cpp:38] Opened lmdb examples/cifar10/cifar10_train_lmdb
I0216 13:13:28.916901 23592 data_layer.cpp:41] output data size: 100,3,32,32
I0216 13:13:28.918277 23592 net.cpp:150] Setting up cifar
I0216 13:13:28.918329 23592 net.cpp:157] Top shape: 100 3 32 32 (307200)
I0216 13:13:28.918344 23592 net.cpp:157] Top shape: 100 (100)
I0216 13:13:28.918351 23592 net.cpp:165] Memory required for data: 1229200
I0216 13:13:28.918367 23592 layer_factory.hpp:77] Creating layer conv1
I0216 13:13:28.918403 23592 net.cpp:106] Creating Layer conv1
I0216 13:13:28.918418 23592 net.cpp:454] conv1 <- data
I0216 13:13:28.918442 23592 net.cpp:411] conv1 -> conv1
I0216 13:13:29.169680 23592 net.cpp:150] Setting up conv1
I0216 13:13:29.169736 23592 net.cpp:157] Top shape: 100 32 32 32 (3276800)
I0216 13:13:29.169749 23592 net.cpp:165] Memory required for data: 14336400
I0216 13:13:29.169777 23592 layer_factory.hpp:77] Creating layer pool1
I0216 13:13:29.169800 23592 net.cpp:106] Creating Layer pool1
I0216 13:13:29.169812 23592 net.cpp:454] pool1 <- conv1
I0216 13:13:29.169826 23592 net.cpp:411] pool1 -> pool1
I0216 13:13:29.170670 23592 net.cpp:150] Setting up pool1
I0216 13:13:29.170696 23592 net.cpp:157] Top shape: 100 32 16 16 (819200)
I0216 13:13:29.170706 23592 net.cpp:165] Memory required for data: 17613200
I0216 13:13:29.170716 23592 layer_factory.hpp:77] Creating layer relu1
I0216 13:13:29.170727 23592 net.cpp:106] Creating Layer relu1
I0216 13:13:29.170737 23592 net.cpp:454] relu1 <- pool1
I0216 13:13:29.170747 23592 net.cpp:397] relu1 -> pool1 (in-place)
I0216 13:13:29.171541 23592 net.cpp:150] Setting up relu1
I0216 13:13:29.171566 23592 net.cpp:157] Top shape: 100 32 16 16 (819200)
I0216 13:13:29.171576 23592 net.cpp:165] Memory required for data: 20890000
I0216 13:13:29.171586 23592 layer_factory.hpp:77] Creating layer norm1
I0216 13:13:29.171619 23592 net.cpp:106] Creating Layer norm1
I0216 13:13:29.171632 23592 net.cpp:454] norm1 <- pool1
I0216 13:13:29.171643 23592 net.cpp:411] norm1 -> norm1
I0216 13:13:29.172830 23592 net.cpp:150] Setting up norm1
I0216 13:13:29.172871 23592 net.cpp:157] Top shape: 100 32 16 16 (819200)
I0216 13:13:29.172883 23592 net.cpp:165] Memory required for data: 24166800
I0216 13:13:29.172891 23592 layer_factory.hpp:77] Creating layer conv2
I0216 13:13:29.172909 23592 net.cpp:106] Creating Layer conv2
I0216 13:13:29.172919 23592 net.cpp:454] conv2 <- norm1
I0216 13:13:29.172933 23592 net.cpp:411] conv2 -> conv2
I0216 13:13:29.176806 23592 net.cpp:150] Setting up conv2
I0216 13:13:29.176858 23592 net.cpp:157] Top shape: 100 32 16 16 (819200)
I0216 13:13:29.176870 23592 net.cpp:165] Memory required for data: 27443600
I0216 13:13:29.176893 23592 layer_factory.hpp:77] Creating layer relu2
I0216 13:13:29.176915 23592 net.cpp:106] Creating Layer relu2
I0216 13:13:29.176928 23592 net.cpp:454] relu2 <- conv2
I0216 13:13:29.176940 23592 net.cpp:397] relu2 -> conv2 (in-place)
I0216 13:13:29.177860 23592 net.cpp:150] Setting up relu2
I0216 13:13:29.177886 23592 net.cpp:157] Top shape: 100 32 16 16 (819200)
I0216 13:13:29.177894 23592 net.cpp:165] Memory required for data: 30720400
I0216 13:13:29.177902 23592 layer_factory.hpp:77] Creating layer pool2
I0216 13:13:29.177918 23592 net.cpp:106] Creating Layer pool2
I0216 13:13:29.177928 23592 net.cpp:454] pool2 <- conv2
I0216 13:13:29.177943 23592 net.cpp:411] pool2 -> pool2
I0216 13:13:29.178958 23592 net.cpp:150] Setting up pool2
I0216 13:13:29.178997 23592 net.cpp:157] Top shape: 100 32 8 8 (204800)
I0216 13:13:29.179009 23592 net.cpp:165] Memory required for data: 31539600
I0216 13:13:29.179019 23592 layer_factory.hpp:77] Creating layer norm2
I0216 13:13:29.179040 23592 net.cpp:106] Creating Layer norm2
I0216 13:13:29.179064 23592 net.cpp:454] norm2 <- pool2
I0216 13:13:29.179095 23592 net.cpp:411] norm2 -> norm2
I0216 13:13:29.180357 23592 net.cpp:150] Setting up norm2
I0216 13:13:29.180382 23592 net.cpp:157] Top shape: 100 32 8 8 (204800)
I0216 13:13:29.180392 23592 net.cpp:165] Memory required for data: 32358800
I0216 13:13:29.180399 23592 layer_factory.hpp:77] Creating layer conv3
I0216 13:13:29.180418 23592 net.cpp:106] Creating Layer conv3
I0216 13:13:29.180428 23592 net.cpp:454] conv3 <- norm2
I0216 13:13:29.180444 23592 net.cpp:411] conv3 -> conv3
I0216 13:13:29.185160 23592 net.cpp:150] Setting up conv3
I0216 13:13:29.185214 23592 net.cpp:157] Top shape: 100 64 8 8 (409600)
I0216 13:13:29.185226 23592 net.cpp:165] Memory required for data: 33997200
I0216 13:13:29.185248 23592 layer_factory.hpp:77] Creating layer relu3
I0216 13:13:29.185266 23592 net.cpp:106] Creating Layer relu3
I0216 13:13:29.185276 23592 net.cpp:454] relu3 <- conv3
I0216 13:13:29.185286 23592 net.cpp:397] relu3 -> conv3 (in-place)
I0216 13:13:29.186206 23592 net.cpp:150] Setting up relu3
I0216 13:13:29.186228 23592 net.cpp:157] Top shape: 100 64 8 8 (409600)
I0216 13:13:29.186236 23592 net.cpp:165] Memory required for data: 35635600
I0216 13:13:29.186244 23592 layer_factory.hpp:77] Creating layer pool3
I0216 13:13:29.186256 23592 net.cpp:106] Creating Layer pool3
I0216 13:13:29.186264 23592 net.cpp:454] pool3 <- conv3
I0216 13:13:29.186278 23592 net.cpp:411] pool3 -> pool3
I0216 13:13:29.187201 23592 net.cpp:150] Setting up pool3
I0216 13:13:29.187222 23592 net.cpp:157] Top shape: 100 64 4 4 (102400)
I0216 13:13:29.187230 23592 net.cpp:165] Memory required for data: 36045200
I0216 13:13:29.187238 23592 layer_factory.hpp:77] Creating layer ip1
I0216 13:13:29.187263 23592 net.cpp:106] Creating Layer ip1
I0216 13:13:29.187273 23592 net.cpp:454] ip1 <- pool3
I0216 13:13:29.187286 23592 net.cpp:411] ip1 -> ip1
I0216 13:13:29.204512 23592 net.cpp:150] Setting up ip1
I0216 13:13:29.204565 23592 net.cpp:157] Top shape: 100 500 (50000)
I0216 13:13:29.204576 23592 net.cpp:165] Memory required for data: 36245200
I0216 13:13:29.204592 23592 layer_factory.hpp:77] Creating layer relu4
I0216 13:13:29.204608 23592 net.cpp:106] Creating Layer relu4
I0216 13:13:29.204617 23592 net.cpp:454] relu4 <- ip1
I0216 13:13:29.204628 23592 net.cpp:397] relu4 -> ip1 (in-place)
I0216 13:13:29.205783 23592 net.cpp:150] Setting up relu4
I0216 13:13:29.205822 23592 net.cpp:157] Top shape: 100 500 (50000)
I0216 13:13:29.205834 23592 net.cpp:165] Memory required for data: 36445200
I0216 13:13:29.205844 23592 layer_factory.hpp:77] Creating layer push1
I0216 13:13:29.205859 23592 net.cpp:106] Creating Layer push1
I0216 13:13:29.205868 23592 net.cpp:454] push1 <- ip1
I0216 13:13:29.205885 23592 net.cpp:397] push1 -> ip1 (in-place)
I0216 13:13:29.205909 23592 net.cpp:150] Setting up push1
I0216 13:13:29.205921 23592 net.cpp:157] Top shape: 100 500 (50000)
I0216 13:13:29.205929 23592 net.cpp:165] Memory required for data: 36645200
I0216 13:13:29.205935 23592 layer_factory.hpp:77] Creating layer ip2
I0216 13:13:29.205950 23592 net.cpp:106] Creating Layer ip2
I0216 13:13:29.205957 23592 net.cpp:454] ip2 <- ip1
I0216 13:13:29.205970 23592 net.cpp:411] ip2 -> ip2
I0216 13:13:29.206174 23592 net.cpp:150] Setting up ip2
I0216 13:13:29.206192 23592 net.cpp:157] Top shape: 100 10 (1000)
I0216 13:13:29.206200 23592 net.cpp:165] Memory required for data: 36649200
I0216 13:13:29.206223 23592 layer_factory.hpp:77] Creating layer loss
I0216 13:13:29.206240 23592 net.cpp:106] Creating Layer loss
I0216 13:13:29.206250 23592 net.cpp:454] loss <- ip2
I0216 13:13:29.206259 23592 net.cpp:454] loss <- label
I0216 13:13:29.206271 23592 net.cpp:411] loss -> loss
I0216 13:13:29.206287 23592 layer_factory.hpp:77] Creating layer loss
…
I0216 13:13:29.208330 23592 solver.cpp:181] Creating test net (#0) specified by net file: examples/cifar10/jungwoo_full_train_test.prototxt
I0216 13:13:29.208392 23592 net.cpp:322] The NetState phase (1) differed from the phase (0) specified by a rule in layer cifar
I0216 13:13:29.208596 23592 net.cpp:49] Initializing net from parameters: 
name: "CIFAR10_full"
state {
  phase: TEST
}
layer {
  name: "cifar"
  type: "Data"
  top: "data"
  top: "label"
  include {
    phase: TEST
  }
  transform_param {
    mean_file: "examples/cifar10/mean.binaryproto"
  }
  data_param {
    source: "examples/cifar10/cifar10_test_lmdb"
    batch_size: 100
    backend: LMDB
  }
}
layer {
  name: "conv1"
  type: "Convolution"
  bottom: "data"
  top: "conv1"
  param {
    lr_mult: 1
  }
  param {
    lr_mult: 2
  }
  convolution_param {
    num_output: 32
    pad: 2
    kernel_size: 5
    stride: 1
    weight_filler {
      type: "gaussian"
      std: 0.0001
    }
    bias_filler {
      type: "constant"
    }
  }
}
layer {
  name: "pool1"
  type: "Pooling"
  bottom: "conv1"
  top: "pool1"
  pooling_param {
    pool: MAX
    kernel_size: 3
    stride: 2
  }
}
layer {
  name: "relu1"
  type: "ReLU"
  bottom: "pool1"
  top: "pool1"
}
layer {
  name: "norm1"
  type: "LRN"
  bottom: "pool1"
  top: "norm1"
  lrn_param {
    local_size: 3
    alpha: 5e-05
    beta: 0.75
    norm_region: WITHIN_CHANNEL
  }
}
layer {
  name: "conv2"
  type: "Convolution"
  bottom: "norm1"
  top: "conv2"
  param {
    lr_mult: 1
  }
  param {
    lr_mult: 2
  }
  convolution_param {
    num_output: 32
    pad: 2
    kernel_size: 5
    stride: 1
    weight_filler {
      type: "gaussian"
      std: 0.01
    }
    bias_filler {
      type: "constant"
    }
  }
}
layer {
  name: "relu2"
  type: "ReLU"
  bottom: "conv2"
  top: "conv2"
}
layer {
  name: "pool2"
  type: "Pooling"
  bottom: "conv2"
  top: "pool2"
  pooling_param {
    pool: AVE
    kernel_size: 3
    stride: 2
  }
}
layer {
  name: "norm2"
  type: "LRN"
  bottom: "pool2"
  top: "norm2"
  lrn_param {
    local_size: 3
    alpha: 5e-05
    beta: 0.75
    norm_region: WITHIN_CHANNEL
  }
}
layer {
  name: "conv3"
  type: "Convolution"
  bottom: "norm2"
  top: "conv3"
  convolution_param {
    num_output: 64
    pad: 2
    kernel_size: 5
    stride: 1
    weight_filler {
      type: "gaussian"
      std: 0.01
    }
    bias_filler {
      type: "constant"
    }
  }
}
layer {
  name: "relu3"
  type: "ReLU"
  bottom: "conv3"
  top: "conv3"
}
layer {
  name: "pool3"
  type: "Pooling"
  bottom: "conv3"
  top: "pool3"
  pooling_param {
    pool: AVE
    kernel_size: 3
    stride: 2
  }
}
layer {
  name: "ip1"
  type: "InnerProduct"
  bottom: "pool3"
  top: "ip1"
  param {
    lr_mult: 1
  }
  param {
    lr_mult: 2
    decay_mult: 0
  }
  inner_product_param {
    num_output: 500
    weight_filler {
      type: "gaussian"
      std: 0.01
    }
    bias_filler {
      type: "constant"
    }
  }
}
layer {
  name: "relu4"
  type: "ReLU"
  bottom: "ip1"
  top: "ip1"
}
layer {
  name: "push1"
  type: "Pushin"
  bottom: "ip1"
  top: "ip1"
  pushin_param {
    pushin_ratio: 0.2
  }
}
layer {
  name: "ip2"
  type: "InnerProduct"
  bottom: "ip1"
  top: "ip2"
  param {
    lr_mult: 1
    decay_mult: 250
  }
  param {
    lr_mult: 2
    decay_mult: 0
  }
  inner_product_param {
    num_output: 10
    weight_filler {
      type: "gaussian"
      std: 0.01
    }
    bias_filler {
      type: "constant"
    }
  }
}
layer {
  name: "accuracy"
  type: "Accuracy"
  bottom: "ip2"
  bottom: "label"
  top: "accuracy"
  include {
    phase: TEST
  }
}
layer {
  name: "loss"
  type: "SoftmaxWithLoss"
  bottom: "ip2"
  bottom: "label"
  top: "loss"
}
I0216 13:13:29.208757 23592 layer_factory.hpp:77] Creating layer cifar
I0216 13:13:29.208932 23592 net.cpp:106] Creating Layer cifar
I0216 13:13:29.208986 23592 net.cpp:411] cifar -> data
I0216 13:13:29.209010 23592 net.cpp:411] cifar -> label
I0216 13:13:29.209028 23592 data_transformer.cpp:25] Loading mean file from: examples/cifar10/mean.binaryproto
I0216 13:13:29.209995 23598 db_lmdb.cpp:38] Opened lmdb examples/cifar10/cifar10_test_lmdb
I0216 13:13:29.210057 23592 data_layer.cpp:41] output data size: 100,3,32,32
I0216 13:13:29.211566 23592 net.cpp:150] Setting up cifar
I0216 13:13:29.211616 23592 net.cpp:157] Top shape: 100 3 32 32 (307200)
I0216 13:13:29.211629 23592 net.cpp:157] Top shape: 100 (100)
I0216 13:13:29.211637 23592 net.cpp:165] Memory required for data: 1229200
I0216 13:13:29.211647 23592 layer_factory.hpp:77] Creating layer label_cifar_1_split
I0216 13:13:29.211664 23592 net.cpp:106] Creating Layer label_cifar_1_split
I0216 13:13:29.211673 23592 net.cpp:454] label_cifar_1_split <- label
I0216 13:13:29.211685 23592 net.cpp:411] label_cifar_1_split -> label_cifar_1_split_0
I0216 13:13:29.211702 23592 net.cpp:411] label_cifar_1_split -> label_cifar_1_split_1
I0216 13:13:29.211722 23592 net.cpp:150] Setting up label_cifar_1_split
I0216 13:13:29.211735 23592 net.cpp:157] Top shape: 100 (100)
I0216 13:13:29.211743 23592 net.cpp:157] Top shape: 100 (100)
I0216 13:13:29.211750 23592 net.cpp:165] Memory required for data: 1230000
I0216 13:13:29.211757 23592 layer_factory.hpp:77] Creating layer conv1
I0216 13:13:29.211777 23592 net.cpp:106] Creating Layer conv1
I0216 13:13:29.211786 23592 net.cpp:454] conv1 <- data
I0216 13:13:29.213158 23592 net.cpp:411] conv1 -> conv1
I0216 13:13:29.216656 23592 net.cpp:150] Setting up conv1
I0216 13:13:29.216711 23592 net.cpp:157] Top shape: 100 32 32 32 (3276800)
I0216 13:13:29.216723 23592 net.cpp:165] Memory required for data: 14337200
I0216 13:13:29.216748 23592 layer_factory.hpp:77] Creating layer pool1
I0216 13:13:29.216769 23592 net.cpp:106] Creating Layer pool1
I0216 13:13:29.216779 23592 net.cpp:454] pool1 <- conv1
I0216 13:13:29.216794 23592 net.cpp:411] pool1 -> pool1
I0216 13:13:29.217721 23592 net.cpp:150] Setting up pool1
I0216 13:13:29.217751 23592 net.cpp:157] Top shape: 100 32 16 16 (819200)
I0216 13:13:29.217761 23592 net.cpp:165] Memory required for data: 17614000
I0216 13:13:29.217771 23592 layer_factory.hpp:77] Creating layer relu1
I0216 13:13:29.217787 23592 net.cpp:106] Creating Layer relu1
I0216 13:13:29.217797 23592 net.cpp:454] relu1 <- pool1
I0216 13:13:29.217808 23592 net.cpp:397] relu1 -> pool1 (in-place)
I0216 13:13:29.218747 23592 net.cpp:150] Setting up relu1
I0216 13:13:29.218780 23592 net.cpp:157] Top shape: 100 32 16 16 (819200)
I0216 13:13:29.218791 23592 net.cpp:165] Memory required for data: 20890800
I0216 13:13:29.218799 23592 layer_factory.hpp:77] Creating layer norm1
I0216 13:13:29.218818 23592 net.cpp:106] Creating Layer norm1
I0216 13:13:29.218829 23592 net.cpp:454] norm1 <- pool1
I0216 13:13:29.218842 23592 net.cpp:411] norm1 -> norm1
I0216 13:13:29.220099 23592 net.cpp:150] Setting up norm1
I0216 13:13:29.220156 23592 net.cpp:157] Top shape: 100 32 16 16 (819200)
I0216 13:13:29.220167 23592 net.cpp:165] Memory required for data: 24167600
I0216 13:13:29.220177 23592 layer_factory.hpp:77] Creating layer conv2
I0216 13:13:29.220197 23592 net.cpp:106] Creating Layer conv2
I0216 13:13:29.220208 23592 net.cpp:454] conv2 <- norm1
I0216 13:13:29.220226 23592 net.cpp:411] conv2 -> conv2
I0216 13:13:29.224309 23592 net.cpp:150] Setting up conv2
I0216 13:13:29.224365 23592 net.cpp:157] Top shape: 100 32 16 16 (819200)
I0216 13:13:29.224377 23592 net.cpp:165] Memory required for data: 27444400
I0216 13:13:29.224402 23592 layer_factory.hpp:77] Creating layer relu2
I0216 13:13:29.224423 23592 net.cpp:106] Creating Layer relu2
I0216 13:13:29.224433 23592 net.cpp:454] relu2 <- conv2
I0216 13:13:29.224448 23592 net.cpp:397] relu2 -> conv2 (in-place)
I0216 13:13:29.225378 23592 net.cpp:150] Setting up relu2
I0216 13:13:29.225407 23592 net.cpp:157] Top shape: 100 32 16 16 (819200)
I0216 13:13:29.225417 23592 net.cpp:165] Memory required for data: 30721200
I0216 13:13:29.225425 23592 layer_factory.hpp:77] Creating layer pool2
I0216 13:13:29.225445 23592 net.cpp:106] Creating Layer pool2
I0216 13:13:29.225455 23592 net.cpp:454] pool2 <- conv2
I0216 13:13:29.225466 23592 net.cpp:411] pool2 -> pool2
I0216 13:13:29.226400 23592 net.cpp:150] Setting up pool2
I0216 13:13:29.226429 23592 net.cpp:157] Top shape: 100 32 8 8 (204800)
I0216 13:13:29.226439 23592 net.cpp:165] Memory required for data: 31540400
I0216 13:13:29.226447 23592 layer_factory.hpp:77] Creating layer norm2
I0216 13:13:29.226464 23592 net.cpp:106] Creating Layer norm2
I0216 13:13:29.226475 23592 net.cpp:454] norm2 <- pool2
I0216 13:13:29.226485 23592 net.cpp:411] norm2 -> norm2
I0216 13:13:29.227771 23592 net.cpp:150] Setting up norm2
I0216 13:13:29.227810 23592 net.cpp:157] Top shape: 100 32 8 8 (204800)
I0216 13:13:29.227820 23592 net.cpp:165] Memory required for data: 32359600
I0216 13:13:29.227829 23592 layer_factory.hpp:77] Creating layer conv3
I0216 13:13:29.227852 23592 net.cpp:106] Creating Layer conv3
I0216 13:13:29.227864 23592 net.cpp:454] conv3 <- norm2
I0216 13:13:29.227880 23592 net.cpp:411] conv3 -> conv3
I0216 13:13:29.233113 23592 net.cpp:150] Setting up conv3
I0216 13:13:29.233165 23592 net.cpp:157] Top shape: 100 64 8 8 (409600)
I0216 13:13:29.233175 23592 net.cpp:165] Memory required for data: 33998000
I0216 13:13:29.233197 23592 layer_factory.hpp:77] Creating layer relu3
I0216 13:13:29.233217 23592 net.cpp:106] Creating Layer relu3
I0216 13:13:29.233227 23592 net.cpp:454] relu3 <- conv3
I0216 13:13:29.233242 23592 net.cpp:397] relu3 -> conv3 (in-place)
I0216 13:13:29.234549 23592 net.cpp:150] Setting up relu3
I0216 13:13:29.234602 23592 net.cpp:157] Top shape: 100 64 8 8 (409600)
I0216 13:13:29.234634 23592 net.cpp:165] Memory required for data: 35636400
I0216 13:13:29.234666 23592 layer_factory.hpp:77] Creating layer pool3
I0216 13:13:29.234699 23592 net.cpp:106] Creating Layer pool3
I0216 13:13:29.234716 23592 net.cpp:454] pool3 <- conv3
I0216 13:13:29.234746 23592 net.cpp:411] pool3 -> pool3
I0216 13:13:29.236281 23592 net.cpp:150] Setting up pool3
I0216 13:13:29.236326 23592 net.cpp:157] Top shape: 100 64 4 4 (102400)
I0216 13:13:29.236337 23592 net.cpp:165] Memory required for data: 36046000
I0216 13:13:29.236348 23592 layer_factory.hpp:77] Creating layer ip1
I0216 13:13:29.236368 23592 net.cpp:106] Creating Layer ip1
I0216 13:13:29.236380 23592 net.cpp:454] ip1 <- pool3
I0216 13:13:29.236397 23592 net.cpp:411] ip1 -> ip1
I0216 13:13:29.253669 23592 net.cpp:150] Setting up ip1
I0216 13:13:29.253733 23592 net.cpp:157] Top shape: 100 500 (50000)
I0216 13:13:29.253744 23592 net.cpp:165] Memory required for data: 36246000
I0216 13:13:29.253759 23592 layer_factory.hpp:77] Creating layer relu4
I0216 13:13:29.253774 23592 net.cpp:106] Creating Layer relu4
I0216 13:13:29.253783 23592 net.cpp:454] relu4 <- ip1
I0216 13:13:29.253793 23592 net.cpp:397] relu4 -> ip1 (in-place)
I0216 13:13:29.254961 23592 net.cpp:150] Setting up relu4
I0216 13:13:29.255009 23592 net.cpp:157] Top shape: 100 500 (50000)
I0216 13:13:29.255020 23592 net.cpp:165] Memory required for data: 36446000
I0216 13:13:29.255029 23592 layer_factory.hpp:77] Creating layer push1
I0216 13:13:29.255041 23592 net.cpp:106] Creating Layer push1
I0216 13:13:29.255049 23592 net.cpp:454] push1 <- ip1
I0216 13:13:29.255059 23592 net.cpp:397] push1 -> ip1 (in-place)
I0216 13:13:29.255075 23592 net.cpp:150] Setting up push1
I0216 13:13:29.255085 23592 net.cpp:157] Top shape: 100 500 (50000)
I0216 13:13:29.255092 23592 net.cpp:165] Memory required for data: 36646000
I0216 13:13:29.255098 23592 layer_factory.hpp:77] Creating layer ip2
I0216 13:13:29.255117 23592 net.cpp:106] Creating Layer ip2
I0216 13:13:29.255127 23592 net.cpp:454] ip2 <- ip1
I0216 13:13:29.255139 23592 net.cpp:411] ip2 -> ip2
I0216 13:13:29.255350 23592 net.cpp:150] Setting up ip2
I0216 13:13:29.255369 23592 net.cpp:157] Top shape: 100 10 (1000)
I0216 13:13:29.255378 23592 net.cpp:165] Memory required for data: 36650000
I0216 13:13:29.255398 23592 layer_factory.hpp:77] Creating layer ip2_ip2_0_split
I0216 13:13:29.255412 23592 net.cpp:106] Creating Layer ip2_ip2_0_split
I0216 13:13:29.255419 23592 net.cpp:454] ip2_ip2_0_split <- ip2
I0216 13:13:29.255429 23592 net.cpp:411] ip2_ip2_0_split -> ip2_ip2_0_split_0
I0216 13:13:29.255442 23592 net.cpp:411] ip2_ip2_0_split -> ip2_ip2_0_split_1
I0216 13:13:29.255457 23592 net.cpp:150] Setting up ip2_ip2_0_split
I0216 13:13:29.255467 23592 net.cpp:157] Top shape: 100 10 (1000)
I0216 13:13:29.255476 23592 net.cpp:157] Top shape: 100 10 (1000)
I0216 13:13:29.255484 23592 net.cpp:165] Memory required for data: 36658000
I0216 13:13:29.255491 23592 layer_factory.hpp:77] Creating layer accuracy
I0216 13:13:29.255502 23592 net.cpp:106] Creating Layer accuracy
I0216 13:13:29.255511 23592 net.cpp:454] accuracy <- ip2_ip2_0_split_0
I0216 13:13:29.255518 23592 net.cpp:454] accuracy <- label_cifar_1_split_0
I0216 13:13:29.255532 23592 net.cpp:411] accuracy -> accuracy
…
