…
I0217 15:21:16.554451 11990 net.cpp:322] The NetState phase (0) differed from the phase (1) specified by a rule in layer mnist
I0217 15:21:16.554468 11990 net.cpp:322] The NetState phase (0) differed from the phase (1) specified by a rule in layer accuracy
I0217 15:21:16.554535 11990 net.cpp:49] Initializing net from parameters: 
name: "LeNet"
state {
  phase: TRAIN
}
layer {
  name: "mnist"
  type: "Data"
  top: "data"
  top: "label"
  include {
    phase: TRAIN
  }
  transform_param {
    scale: 0.00390625
  }
  data_param {
    source: "examples/mnist/mnist_train_lmdb"
    batch_size: 100
    backend: LMDB
  }
}
layer {
  name: "conv1"
  type: "Convolution"
  bottom: "data"
  top: "conv1"
  param {
    lr_mult: 1
  }
  param {
    lr_mult: 2
  }
  convolution_param {
    num_output: 20
    kernel_size: 5
    stride: 1
    weight_filler {
      type: "xavier"
    }
    bias_filler {
      type: "constant"
    }
  }
}
layer {
  name: "pool1"
  type: "Pooling"
  bottom: "conv1"
  top: "pool1"
  pooling_param {
    pool: MAX
    kernel_size: 2
    stride: 2
  }
}
layer {
  name: "conv2"
  type: "Convolution"
  bottom: "pool1"
  top: "conv2"
  param {
    lr_mult: 1
  }
  param {
    lr_mult: 2
  }
  convolution_param {
    num_output: 50
    kernel_size: 5
    stride: 1
    weight_filler {
      type: "xavier"
    }
    bias_filler {
      type: "constant"
    }
  }
}
layer {
  name: "pool2"
  type: "Pooling"
  bottom: "conv2"
  top: "pool2"
  pooling_param {
    pool: MAX
    kernel_size: 2
    stride: 2
  }
}
layer {
  name: "ip1"
  type: "InnerProduct"
  bottom: "pool2"
  top: "ip1"
  param {
    lr_mult: 1
  }
  param {
    lr_mult: 2
  }
  inner_product_param {
    num_output: 500
    weight_filler {
      type: "xavier"
    }
    bias_filler {
      type: "constant"
    }
  }
}
layer {
  name: "relu1"
  type: "ReLU"
  bottom: "ip1"
  top: "ip1"
}
layer {
  name: "push1"
  type: "Pushin"
  bottom: "ip1"
  top: "ip1"
  pushin_param {
    pushin_ratio: 0.2
  }
}
layer {
  name: "ip2"
  type: "InnerProduct"
  bottom: "ip1"
  top: "ip2"
  param {
    lr_mult: 1
  }
  param {
    lr_mult: 2
  }
  inner_product_param {
    num_output: 10
    weight_filler {
      type: "xavier"
    }
    bias_filler {
      type: "constant"
    }
  }
}
layer {
  name: "loss"
  type: "SoftmaxWithLoss"
  bottom: "ip2"
  bottom: "label"
  top: "loss"
}
I0217 15:21:16.554597 11990 layer_factory.hpp:77] Creating layer mnist
I0217 15:21:16.555966 11990 net.cpp:106] Creating Layer mnist
I0217 15:21:16.555982 11990 net.cpp:411] mnist -> data
I0217 15:21:16.556008 11990 net.cpp:411] mnist -> label
I0217 15:21:16.557000 11994 db_lmdb.cpp:38] Opened lmdb examples/mnist/mnist_train_lmdb
I0217 15:21:16.557076 11990 data_layer.cpp:41] output data size: 100,1,28,28
I0217 15:21:16.557487 11990 net.cpp:150] Setting up mnist
I0217 15:21:16.557500 11990 net.cpp:157] Top shape: 100 1 28 28 (78400)
I0217 15:21:16.557505 11990 net.cpp:157] Top shape: 100 (100)
I0217 15:21:16.557509 11990 net.cpp:165] Memory required for data: 314000
I0217 15:21:16.557517 11990 layer_factory.hpp:77] Creating layer conv1
I0217 15:21:16.557533 11990 net.cpp:106] Creating Layer conv1
I0217 15:21:16.557538 11990 net.cpp:454] conv1 <- data
I0217 15:21:16.557548 11990 net.cpp:411] conv1 -> conv1
I0217 15:21:16.690788 11990 net.cpp:150] Setting up conv1
I0217 15:21:16.690824 11990 net.cpp:157] Top shape: 100 20 24 24 (1152000)
I0217 15:21:16.690829 11990 net.cpp:165] Memory required for data: 4922000
I0217 15:21:16.690845 11990 layer_factory.hpp:77] Creating layer pool1
I0217 15:21:16.690866 11990 net.cpp:106] Creating Layer pool1
I0217 15:21:16.690881 11990 net.cpp:454] pool1 <- conv1
I0217 15:21:16.690889 11990 net.cpp:411] pool1 -> pool1
I0217 15:21:16.691490 11990 net.cpp:150] Setting up pool1
I0217 15:21:16.691504 11990 net.cpp:157] Top shape: 100 20 12 12 (288000)
I0217 15:21:16.691509 11990 net.cpp:165] Memory required for data: 6074000
I0217 15:21:16.691512 11990 layer_factory.hpp:77] Creating layer conv2
I0217 15:21:16.691524 11990 net.cpp:106] Creating Layer conv2
I0217 15:21:16.691529 11990 net.cpp:454] conv2 <- pool1
I0217 15:21:16.691535 11990 net.cpp:411] conv2 -> conv2
I0217 15:21:16.693611 11990 net.cpp:150] Setting up conv2
I0217 15:21:16.693629 11990 net.cpp:157] Top shape: 100 50 8 8 (320000)
I0217 15:21:16.693634 11990 net.cpp:165] Memory required for data: 7354000
I0217 15:21:16.693642 11990 layer_factory.hpp:77] Creating layer pool2
I0217 15:21:16.693651 11990 net.cpp:106] Creating Layer pool2
I0217 15:21:16.693655 11990 net.cpp:454] pool2 <- conv2
I0217 15:21:16.693663 11990 net.cpp:411] pool2 -> pool2
I0217 15:21:16.694265 11990 net.cpp:150] Setting up pool2
I0217 15:21:16.694278 11990 net.cpp:157] Top shape: 100 50 4 4 (80000)
I0217 15:21:16.694283 11990 net.cpp:165] Memory required for data: 7674000
I0217 15:21:16.694288 11990 layer_factory.hpp:77] Creating layer ip1
I0217 15:21:16.694295 11990 net.cpp:106] Creating Layer ip1
I0217 15:21:16.694299 11990 net.cpp:454] ip1 <- pool2
I0217 15:21:16.694306 11990 net.cpp:411] ip1 -> ip1
I0217 15:21:16.696884 11990 net.cpp:150] Setting up ip1
I0217 15:21:16.696902 11990 net.cpp:157] Top shape: 100 500 (50000)
I0217 15:21:16.696905 11990 net.cpp:165] Memory required for data: 7874000
I0217 15:21:16.696914 11990 layer_factory.hpp:77] Creating layer relu1
I0217 15:21:16.696923 11990 net.cpp:106] Creating Layer relu1
I0217 15:21:16.696928 11990 net.cpp:454] relu1 <- ip1
I0217 15:21:16.696933 11990 net.cpp:397] relu1 -> ip1 (in-place)
I0217 15:21:16.697552 11990 net.cpp:150] Setting up relu1
I0217 15:21:16.697566 11990 net.cpp:157] Top shape: 100 500 (50000)
I0217 15:21:16.697571 11990 net.cpp:165] Memory required for data: 8074000
I0217 15:21:16.697574 11990 layer_factory.hpp:77] Creating layer push1
I0217 15:21:16.697589 11990 net.cpp:106] Creating Layer push1
I0217 15:21:16.697593 11990 net.cpp:454] push1 <- ip1
I0217 15:21:16.697599 11990 net.cpp:397] push1 -> ip1 (in-place)
INITIAL threshold_ : 0.2
INITIAL st_count: 10000
I0217 15:21:16.697638 11990 net.cpp:150] Setting up push1
I0217 15:21:16.697643 11990 net.cpp:157] Top shape: 100 500 (50000)
I0217 15:21:16.697648 11990 net.cpp:165] Memory required for data: 8274000
I0217 15:21:16.697651 11990 layer_factory.hpp:77] Creating layer ip2
I0217 15:21:16.697660 11990 net.cpp:106] Creating Layer ip2
I0217 15:21:16.697664 11990 net.cpp:454] ip2 <- ip1
I0217 15:21:16.697670 11990 net.cpp:411] ip2 -> ip2
I0217 15:21:16.697720 11990 net.cpp:150] Setting up ip2
I0217 15:21:16.697726 11990 net.cpp:157] Top shape: 100 10 (1000)
I0217 15:21:16.697728 11990 net.cpp:165] Memory required for data: 8278000
I0217 15:21:16.697734 11990 layer_factory.hpp:77] Creating layer loss
I0217 15:21:16.697741 11990 net.cpp:106] Creating Layer loss
I0217 15:21:16.697744 11990 net.cpp:454] loss <- ip2
I0217 15:21:16.697748 11990 net.cpp:454] loss <- label
I0217 15:21:16.697756 11990 net.cpp:411] loss -> loss
I0217 15:21:16.697770 11990 layer_factory.hpp:77] Creating layer loss
…
I0217 15:21:16.698771 11990 solver.cpp:181] Creating test net (#0) specified by net file: examples/mnist/lenet_jungwoo_train_test.prototxt
I0217 15:21:16.698799 11990 net.cpp:322] The NetState phase (1) differed from the phase (0) specified by a rule in layer mnist
I0217 15:21:16.698884 11990 net.cpp:49] Initializing net from parameters: 
name: "LeNet"
state {
  phase: TEST
}
layer {
  name: "mnist"
  type: "Data"
  top: "data"
  top: "label"
  include {
    phase: TEST
  }
  transform_param {
    scale: 0.00390625
  }
  data_param {
    source: "examples/mnist/mnist_test_lmdb"
    batch_size: 100
    backend: LMDB
  }
}
layer {
  name: "conv1"
  type: "Convolution"
  bottom: "data"
  top: "conv1"
  param {
    lr_mult: 1
  }
  param {
    lr_mult: 2
  }
  convolution_param {
    num_output: 20
    kernel_size: 5
    stride: 1
    weight_filler {
      type: "xavier"
    }
    bias_filler {
      type: "constant"
    }
  }
}
layer {
  name: "pool1"
  type: "Pooling"
  bottom: "conv1"
  top: "pool1"
  pooling_param {
    pool: MAX
    kernel_size: 2
    stride: 2
  }
}
layer {
  name: "conv2"
  type: "Convolution"
  bottom: "pool1"
  top: "conv2"
  param {
    lr_mult: 1
  }
  param {
    lr_mult: 2
  }
  convolution_param {
    num_output: 50
    kernel_size: 5
    stride: 1
    weight_filler {
      type: "xavier"
    }
    bias_filler {
      type: "constant"
    }
  }
}
layer {
  name: "pool2"
  type: "Pooling"
  bottom: "conv2"
  top: "pool2"
  pooling_param {
    pool: MAX
    kernel_size: 2
    stride: 2
  }
}
layer {
  name: "ip1"
  type: "InnerProduct"
  bottom: "pool2"
  top: "ip1"
  param {
    lr_mult: 1
  }
  param {
    lr_mult: 2
  }
  inner_product_param {
    num_output: 500
    weight_filler {
      type: "xavier"
    }
    bias_filler {
      type: "constant"
    }
  }
}
layer {
  name: "relu1"
  type: "ReLU"
  bottom: "ip1"
  top: "ip1"
}
layer {
  name: "push1"
  type: "Pushin"
  bottom: "ip1"
  top: "ip1"
  pushin_param {
    pushin_ratio: 0.2
  }
}
layer {
  name: "ip2"
  type: "InnerProduct"
  bottom: "ip1"
  top: "ip2"
  param {
    lr_mult: 1
  }
  param {
    lr_mult: 2
  }
  inner_product_param {
    num_output: 10
    weight_filler {
      type: "xavier"
    }
    bias_filler {
      type: "constant"
    }
  }
}
layer {
  name: "accuracy"
  type: "Accuracy"
  bottom: "ip2"
  bottom: "label"
  top: "accuracy"
  include {
    phase: TEST
  }
}
layer {
  name: "loss"
  type: "SoftmaxWithLoss"
  bottom: "ip2"
  bottom: "label"
  top: "loss"
}
I0217 15:21:16.698946 11990 layer_factory.hpp:77] Creating layer mnist
I0217 15:21:16.699043 11990 net.cpp:106] Creating Layer mnist
I0217 15:21:16.699053 11990 net.cpp:411] mnist -> data
I0217 15:21:16.699060 11990 net.cpp:411] mnist -> label
I0217 15:21:16.700057 11996 db_lmdb.cpp:38] Opened lmdb examples/mnist/mnist_test_lmdb
I0217 15:21:16.700109 11990 data_layer.cpp:41] output data size: 100,1,28,28
I0217 15:21:16.700492 11990 net.cpp:150] Setting up mnist
I0217 15:21:16.700503 11990 net.cpp:157] Top shape: 100 1 28 28 (78400)
I0217 15:21:16.700508 11990 net.cpp:157] Top shape: 100 (100)
I0217 15:21:16.700512 11990 net.cpp:165] Memory required for data: 314000
I0217 15:21:16.700516 11990 layer_factory.hpp:77] Creating layer label_mnist_1_split
I0217 15:21:16.700525 11990 net.cpp:106] Creating Layer label_mnist_1_split
I0217 15:21:16.700530 11990 net.cpp:454] label_mnist_1_split <- label
I0217 15:21:16.700536 11990 net.cpp:411] label_mnist_1_split -> label_mnist_1_split_0
I0217 15:21:16.700542 11990 net.cpp:411] label_mnist_1_split -> label_mnist_1_split_1
I0217 15:21:16.700554 11990 net.cpp:150] Setting up label_mnist_1_split
I0217 15:21:16.700567 11990 net.cpp:157] Top shape: 100 (100)
I0217 15:21:16.700570 11990 net.cpp:157] Top shape: 100 (100)
I0217 15:21:16.700573 11990 net.cpp:165] Memory required for data: 314800
I0217 15:21:16.700577 11990 layer_factory.hpp:77] Creating layer conv1
I0217 15:21:16.700587 11990 net.cpp:106] Creating Layer conv1
I0217 15:21:16.700590 11990 net.cpp:454] conv1 <- data
I0217 15:21:16.700598 11990 net.cpp:411] conv1 -> conv1
I0217 15:21:16.702586 11990 net.cpp:150] Setting up conv1
I0217 15:21:16.702612 11990 net.cpp:157] Top shape: 100 20 24 24 (1152000)
I0217 15:21:16.702616 11990 net.cpp:165] Memory required for data: 4922800
I0217 15:21:16.702631 11990 layer_factory.hpp:77] Creating layer pool1
I0217 15:21:16.702651 11990 net.cpp:106] Creating Layer pool1
I0217 15:21:16.702656 11990 net.cpp:454] pool1 <- conv1
I0217 15:21:16.702663 11990 net.cpp:411] pool1 -> pool1
I0217 15:21:16.703255 11990 net.cpp:150] Setting up pool1
I0217 15:21:16.703279 11990 net.cpp:157] Top shape: 100 20 12 12 (288000)
I0217 15:21:16.703289 11990 net.cpp:165] Memory required for data: 6074800
I0217 15:21:16.703294 11990 layer_factory.hpp:77] Creating layer conv2
I0217 15:21:16.703305 11990 net.cpp:106] Creating Layer conv2
I0217 15:21:16.703310 11990 net.cpp:454] conv2 <- pool1
I0217 15:21:16.703318 11990 net.cpp:411] conv2 -> conv2
I0217 15:21:16.705267 11990 net.cpp:150] Setting up conv2
I0217 15:21:16.705284 11990 net.cpp:157] Top shape: 100 50 8 8 (320000)
I0217 15:21:16.705288 11990 net.cpp:165] Memory required for data: 7354800
I0217 15:21:16.705298 11990 layer_factory.hpp:77] Creating layer pool2
I0217 15:21:16.705308 11990 net.cpp:106] Creating Layer pool2
I0217 15:21:16.705313 11990 net.cpp:454] pool2 <- conv2
I0217 15:21:16.705318 11990 net.cpp:411] pool2 -> pool2
I0217 15:21:16.705895 11990 net.cpp:150] Setting up pool2
I0217 15:21:16.705909 11990 net.cpp:157] Top shape: 100 50 4 4 (80000)
I0217 15:21:16.705914 11990 net.cpp:165] Memory required for data: 7674800
I0217 15:21:16.705917 11990 layer_factory.hpp:77] Creating layer ip1
I0217 15:21:16.705925 11990 net.cpp:106] Creating Layer ip1
I0217 15:21:16.705929 11990 net.cpp:454] ip1 <- pool2
I0217 15:21:16.705935 11990 net.cpp:411] ip1 -> ip1
I0217 15:21:16.708530 11990 net.cpp:150] Setting up ip1
I0217 15:21:16.708551 11990 net.cpp:157] Top shape: 100 500 (50000)
I0217 15:21:16.708555 11990 net.cpp:165] Memory required for data: 7874800
I0217 15:21:16.708565 11990 layer_factory.hpp:77] Creating layer relu1
I0217 15:21:16.708573 11990 net.cpp:106] Creating Layer relu1
I0217 15:21:16.708577 11990 net.cpp:454] relu1 <- ip1
I0217 15:21:16.708583 11990 net.cpp:397] relu1 -> ip1 (in-place)
I0217 15:21:16.709332 11990 net.cpp:150] Setting up relu1
I0217 15:21:16.709347 11990 net.cpp:157] Top shape: 100 500 (50000)
I0217 15:21:16.709350 11990 net.cpp:165] Memory required for data: 8074800
I0217 15:21:16.709354 11990 layer_factory.hpp:77] Creating layer push1
I0217 15:21:16.709364 11990 net.cpp:106] Creating Layer push1
I0217 15:21:16.709369 11990 net.cpp:454] push1 <- ip1
I0217 15:21:16.709377 11990 net.cpp:397] push1 -> ip1 (in-place)
INITIAL threshold_ : 0.2
INITIAL st_count: 10000
I0217 15:21:16.709395 11990 net.cpp:150] Setting up push1
I0217 15:21:16.709400 11990 net.cpp:157] Top shape: 100 500 (50000)
I0217 15:21:16.709404 11990 net.cpp:165] Memory required for data: 8274800
I0217 15:21:16.709408 11990 layer_factory.hpp:77] Creating layer ip2
I0217 15:21:16.709414 11990 net.cpp:106] Creating Layer ip2
I0217 15:21:16.709419 11990 net.cpp:454] ip2 <- ip1
I0217 15:21:16.709425 11990 net.cpp:411] ip2 -> ip2
I0217 15:21:16.709478 11990 net.cpp:150] Setting up ip2
I0217 15:21:16.709487 11990 net.cpp:157] Top shape: 100 10 (1000)
I0217 15:21:16.709491 11990 net.cpp:165] Memory required for data: 8278800
I0217 15:21:16.709496 11990 layer_factory.hpp:77] Creating layer ip2_ip2_0_split
I0217 15:21:16.709502 11990 net.cpp:106] Creating Layer ip2_ip2_0_split
I0217 15:21:16.709506 11990 net.cpp:454] ip2_ip2_0_split <- ip2
I0217 15:21:16.709519 11990 net.cpp:411] ip2_ip2_0_split -> ip2_ip2_0_split_0
I0217 15:21:16.709527 11990 net.cpp:411] ip2_ip2_0_split -> ip2_ip2_0_split_1
I0217 15:21:16.709544 11990 net.cpp:150] Setting up ip2_ip2_0_split
I0217 15:21:16.709550 11990 net.cpp:157] Top shape: 100 10 (1000)
I0217 15:21:16.709554 11990 net.cpp:157] Top shape: 100 10 (1000)
I0217 15:21:16.709558 11990 net.cpp:165] Memory required for data: 8286800
I0217 15:21:16.709560 11990 layer_factory.hpp:77] Creating layer accuracy
I0217 15:21:16.709568 11990 net.cpp:106] Creating Layer accuracy
I0217 15:21:16.709573 11990 net.cpp:454] accuracy <- ip2_ip2_0_split_0
I0217 15:21:16.709578 11990 net.cpp:454] accuracy <- label_mnist_1_split_0
I0217 15:21:16.709583 11990 net.cpp:411] accuracy -> accuracy
…
