…
I0311 13:30:03.417064 19958 net.cpp:322] The NetState phase (0) differed from the phase (1) specified by a rule in layer mnist
I0311 13:30:03.417093 19958 net.cpp:322] The NetState phase (0) differed from the phase (1) specified by a rule in layer accuracy
I0311 13:30:03.417230 19958 net.cpp:49] Initializing net from parameters: 
name: "LeNet"
state {
  phase: TRAIN
}
layer {
  name: "mnist"
  type: "Data"
  top: "data"
  top: "label"
  include {
    phase: TRAIN
  }
  transform_param {
    scale: 0.00390625
  }
  data_param {
    source: "examples/mnist/mnist_train_lmdb"
    batch_size: 64
    backend: LMDB
  }
}
layer {
  name: "conv1"
  type: "Convolution"
  bottom: "data"
  top: "conv1"
  param {
    lr_mult: 1
  }
  param {
    lr_mult: 2
  }
  convolution_param {
    num_output: 20
    kernel_size: 5
    stride: 1
    weight_filler {
      type: "xavier"
    }
    bias_filler {
      type: "constant"
    }
  }
}
layer {
  name: "pool1"
  type: "Pooling"
  bottom: "conv1"
  top: "pool1"
  pooling_param {
    pool: MAX
    kernel_size: 2
    stride: 2
  }
}
layer {
  name: "conv2"
  type: "Convolution"
  bottom: "pool1"
  top: "conv2"
  param {
    lr_mult: 1
  }
  param {
    lr_mult: 2
  }
  convolution_param {
    num_output: 50
    kernel_size: 5
    stride: 1
    weight_filler {
      type: "xavier"
    }
    bias_filler {
      type: "constant"
    }
  }
}
layer {
  name: "pool2"
  type: "Pooling"
  bottom: "conv2"
  top: "pool2"
  pooling_param {
    pool: MAX
    kernel_size: 2
    stride: 2
  }
}
layer {
  name: "ip1"
  type: "InnerProduct"
  bottom: "pool2"
  top: "ip1"
  param {
    lr_mult: 1
  }
  param {
    lr_mult: 2
  }
  inner_product_param {
    num_output: 500
    weight_filler {
      type: "xavier"
    }
    bias_filler {
      type: "constant"
    }
  }
}
layer {
  name: "absVal1"
  type: "AbsVal"
  bottom: "ip1"
  top: "absVal1"
}
layer {
  name: "relu1"
  type: "ReLU"
  bottom: "absVal1"
  top: "relu1"
}
layer {
  name: "ip2"
  type: "InnerProduct"
  bottom: "relu1"
  top: "ip2"
  param {
    lr_mult: 1
  }
  param {
    lr_mult: 2
  }
  inner_product_param {
    num_output: 10
    weight_filler {
      type: "xavier"
    }
    bias_filler {
      type: "constant"
    }
  }
}
layer {
  name: "loss"
  type: "SoftmaxWithLoss"
  bottom: "ip2"
  bottom: "label"
  top: "loss"
}
I0311 13:30:03.417855 19958 layer_factory.hpp:77] Creating layer mnist
I0311 13:30:03.418536 19958 net.cpp:106] Creating Layer mnist
I0311 13:30:03.418576 19958 net.cpp:411] mnist -> data
I0311 13:30:03.418627 19958 net.cpp:411] mnist -> label
I0311 13:30:03.419523 19962 db_lmdb.cpp:38] Opened lmdb examples/mnist/mnist_train_lmdb
I0311 13:30:03.431366 19958 data_layer.cpp:41] output data size: 64,1,28,28
I0311 13:30:03.433384 19958 net.cpp:150] Setting up mnist
I0311 13:30:03.433450 19958 net.cpp:157] Top shape: 64 1 28 28 (50176)
I0311 13:30:03.433483 19958 net.cpp:157] Top shape: 64 (64)
I0311 13:30:03.433511 19958 net.cpp:165] Memory required for data: 200960
I0311 13:30:03.433545 19958 layer_factory.hpp:77] Creating layer conv1
I0311 13:30:03.433596 19958 net.cpp:106] Creating Layer conv1
I0311 13:30:03.433626 19958 net.cpp:454] conv1 <- data
I0311 13:30:03.433661 19958 net.cpp:411] conv1 -> conv1
I0311 13:30:03.598980 19958 net.cpp:150] Setting up conv1
I0311 13:30:03.599066 19958 net.cpp:157] Top shape: 64 20 24 24 (737280)
I0311 13:30:03.599095 19958 net.cpp:165] Memory required for data: 3150080
I0311 13:30:03.599144 19958 layer_factory.hpp:77] Creating layer pool1
I0311 13:30:03.599184 19958 net.cpp:106] Creating Layer pool1
I0311 13:30:03.599211 19958 net.cpp:454] pool1 <- conv1
I0311 13:30:03.599261 19958 net.cpp:411] pool1 -> pool1
I0311 13:30:03.600198 19958 net.cpp:150] Setting up pool1
I0311 13:30:03.600240 19958 net.cpp:157] Top shape: 64 20 12 12 (184320)
I0311 13:30:03.600270 19958 net.cpp:165] Memory required for data: 3887360
I0311 13:30:03.600297 19958 layer_factory.hpp:77] Creating layer conv2
I0311 13:30:03.600332 19958 net.cpp:106] Creating Layer conv2
I0311 13:30:03.600358 19958 net.cpp:454] conv2 <- pool1
I0311 13:30:03.600392 19958 net.cpp:411] conv2 -> conv2
I0311 13:30:03.603757 19958 net.cpp:150] Setting up conv2
I0311 13:30:03.603824 19958 net.cpp:157] Top shape: 64 50 8 8 (204800)
I0311 13:30:03.603855 19958 net.cpp:165] Memory required for data: 4706560
I0311 13:30:03.603894 19958 layer_factory.hpp:77] Creating layer pool2
I0311 13:30:03.603941 19958 net.cpp:106] Creating Layer pool2
I0311 13:30:03.603971 19958 net.cpp:454] pool2 <- conv2
I0311 13:30:03.604004 19958 net.cpp:411] pool2 -> pool2
I0311 13:30:03.605017 19958 net.cpp:150] Setting up pool2
I0311 13:30:03.605059 19958 net.cpp:157] Top shape: 64 50 4 4 (51200)
I0311 13:30:03.605088 19958 net.cpp:165] Memory required for data: 4911360
I0311 13:30:03.605114 19958 layer_factory.hpp:77] Creating layer ip1
I0311 13:30:03.605159 19958 net.cpp:106] Creating Layer ip1
I0311 13:30:03.605187 19958 net.cpp:454] ip1 <- pool2
I0311 13:30:03.605212 19958 net.cpp:411] ip1 -> ip1
I0311 13:30:03.608644 19958 net.cpp:150] Setting up ip1
I0311 13:30:03.608711 19958 net.cpp:157] Top shape: 64 500 (32000)
I0311 13:30:03.608741 19958 net.cpp:165] Memory required for data: 5039360
I0311 13:30:03.608783 19958 layer_factory.hpp:77] Creating layer absVal1
I0311 13:30:03.608832 19958 net.cpp:106] Creating Layer absVal1
I0311 13:30:03.608863 19958 net.cpp:454] absVal1 <- ip1
I0311 13:30:03.608902 19958 net.cpp:411] absVal1 -> absVal1
I0311 13:30:03.608995 19958 net.cpp:150] Setting up absVal1
I0311 13:30:03.609032 19958 net.cpp:157] Top shape: 64 500 (32000)
I0311 13:30:03.609060 19958 net.cpp:165] Memory required for data: 5167360
I0311 13:30:03.609082 19958 layer_factory.hpp:77] Creating layer relu1
I0311 13:30:03.609112 19958 net.cpp:106] Creating Layer relu1
I0311 13:30:03.609138 19958 net.cpp:454] relu1 <- absVal1
I0311 13:30:03.609166 19958 net.cpp:411] relu1 -> relu1
I0311 13:30:03.610201 19958 net.cpp:150] Setting up relu1
I0311 13:30:03.610244 19958 net.cpp:157] Top shape: 64 500 (32000)
I0311 13:30:03.610266 19958 net.cpp:165] Memory required for data: 5295360
I0311 13:30:03.610285 19958 layer_factory.hpp:77] Creating layer ip2
I0311 13:30:03.610313 19958 net.cpp:106] Creating Layer ip2
I0311 13:30:03.610333 19958 net.cpp:454] ip2 <- relu1
I0311 13:30:03.610354 19958 net.cpp:411] ip2 -> ip2
I0311 13:30:03.611034 19958 net.cpp:150] Setting up ip2
I0311 13:30:03.611076 19958 net.cpp:157] Top shape: 64 10 (640)
I0311 13:30:03.611104 19958 net.cpp:165] Memory required for data: 5297920
I0311 13:30:03.611134 19958 layer_factory.hpp:77] Creating layer loss
I0311 13:30:03.611165 19958 net.cpp:106] Creating Layer loss
I0311 13:30:03.611194 19958 net.cpp:454] loss <- ip2
I0311 13:30:03.611222 19958 net.cpp:454] loss <- label
I0311 13:30:03.611249 19958 net.cpp:411] loss -> loss
I0311 13:30:03.611300 19958 layer_factory.hpp:77] Creating layer loss
…
I0311 13:30:03.613376 19958 solver.cpp:181] Creating test net (#0) specified by net file: examples/mnist/lenet_train_test.prototxt
I0311 13:30:03.613443 19958 net.cpp:322] The NetState phase (1) differed from the phase (0) specified by a rule in layer mnist
I0311 13:30:03.613600 19958 net.cpp:49] Initializing net from parameters: 
name: "LeNet"
state {
  phase: TEST
}
layer {
  name: "mnist"
  type: "Data"
  top: "data"
  top: "label"
  include {
    phase: TEST
  }
  transform_param {
    scale: 0.00390625
  }
  data_param {
    source: "examples/mnist/mnist_test_lmdb"
    batch_size: 100
    backend: LMDB
  }
}
layer {
  name: "conv1"
  type: "Convolution"
  bottom: "data"
  top: "conv1"
  param {
    lr_mult: 1
  }
  param {
    lr_mult: 2
  }
  convolution_param {
    num_output: 20
    kernel_size: 5
    stride: 1
    weight_filler {
      type: "xavier"
    }
    bias_filler {
      type: "constant"
    }
  }
}
layer {
  name: "pool1"
  type: "Pooling"
  bottom: "conv1"
  top: "pool1"
  pooling_param {
    pool: MAX
    kernel_size: 2
    stride: 2
  }
}
layer {
  name: "conv2"
  type: "Convolution"
  bottom: "pool1"
  top: "conv2"
  param {
    lr_mult: 1
  }
  param {
    lr_mult: 2
  }
  convolution_param {
    num_output: 50
    kernel_size: 5
    stride: 1
    weight_filler {
      type: "xavier"
    }
    bias_filler {
      type: "constant"
    }
  }
}
layer {
  name: "pool2"
  type: "Pooling"
  bottom: "conv2"
  top: "pool2"
  pooling_param {
    pool: MAX
    kernel_size: 2
    stride: 2
  }
}
layer {
  name: "ip1"
  type: "InnerProduct"
  bottom: "pool2"
  top: "ip1"
  param {
    lr_mult: 1
  }
  param {
    lr_mult: 2
  }
  inner_product_param {
    num_output: 500
    weight_filler {
      type: "xavier"
    }
    bias_filler {
      type: "constant"
    }
  }
}
layer {
  name: "absVal1"
  type: "AbsVal"
  bottom: "ip1"
  top: "absVal1"
}
layer {
  name: "relu1"
  type: "ReLU"
  bottom: "absVal1"
  top: "relu1"
}
layer {
  name: "ip2"
  type: "InnerProduct"
  bottom: "relu1"
  top: "ip2"
  param {
    lr_mult: 1
  }
  param {
    lr_mult: 2
  }
  inner_product_param {
    num_output: 10
    weight_filler {
      type: "xavier"
    }
    bias_filler {
      type: "constant"
    }
  }
}
layer {
  name: "accuracy"
  type: "Accuracy"
  bottom: "ip2"
  bottom: "label"
  top: "accuracy"
  include {
    phase: TEST
  }
}
layer {
  name: "loss"
  type: "SoftmaxWithLoss"
  bottom: "ip2"
  bottom: "label"
  top: "loss"
}
I0311 13:30:03.614267 19958 layer_factory.hpp:77] Creating layer mnist
I0311 13:30:03.614449 19958 net.cpp:106] Creating Layer mnist
I0311 13:30:03.614492 19958 net.cpp:411] mnist -> data
I0311 13:30:03.614532 19958 net.cpp:411] mnist -> label
I0311 13:30:03.615437 19964 db_lmdb.cpp:38] Opened lmdb examples/mnist/mnist_test_lmdb
I0311 13:30:03.615602 19958 data_layer.cpp:41] output data size: 100,1,28,28
I0311 13:30:03.617166 19958 net.cpp:150] Setting up mnist
I0311 13:30:03.617221 19958 net.cpp:157] Top shape: 100 1 28 28 (78400)
I0311 13:30:03.617255 19958 net.cpp:157] Top shape: 100 (100)
I0311 13:30:03.617282 19958 net.cpp:165] Memory required for data: 314000
I0311 13:30:03.617311 19958 layer_factory.hpp:77] Creating layer label_mnist_1_split
I0311 13:30:03.617347 19958 net.cpp:106] Creating Layer label_mnist_1_split
I0311 13:30:03.617375 19958 net.cpp:454] label_mnist_1_split <- label
I0311 13:30:03.617406 19958 net.cpp:411] label_mnist_1_split -> label_mnist_1_split_0
I0311 13:30:03.617441 19958 net.cpp:411] label_mnist_1_split -> label_mnist_1_split_1
I0311 13:30:03.617547 19958 net.cpp:150] Setting up label_mnist_1_split
I0311 13:30:03.617581 19958 net.cpp:157] Top shape: 100 (100)
I0311 13:30:03.617610 19958 net.cpp:157] Top shape: 100 (100)
I0311 13:30:03.617652 19958 net.cpp:165] Memory required for data: 314800
I0311 13:30:03.617696 19958 layer_factory.hpp:77] Creating layer conv1
I0311 13:30:03.617743 19958 net.cpp:106] Creating Layer conv1
I0311 13:30:03.617774 19958 net.cpp:454] conv1 <- data
I0311 13:30:03.617817 19958 net.cpp:411] conv1 -> conv1
I0311 13:30:03.621424 19958 net.cpp:150] Setting up conv1
I0311 13:30:03.621480 19958 net.cpp:157] Top shape: 100 20 24 24 (1152000)
I0311 13:30:03.621511 19958 net.cpp:165] Memory required for data: 4922800
I0311 13:30:03.621549 19958 layer_factory.hpp:77] Creating layer pool1
I0311 13:30:03.621587 19958 net.cpp:106] Creating Layer pool1
I0311 13:30:03.621615 19958 net.cpp:454] pool1 <- conv1
I0311 13:30:03.621644 19958 net.cpp:411] pool1 -> pool1
I0311 13:30:03.622779 19958 net.cpp:150] Setting up pool1
I0311 13:30:03.622820 19958 net.cpp:157] Top shape: 100 20 12 12 (288000)
I0311 13:30:03.622854 19958 net.cpp:165] Memory required for data: 6074800
I0311 13:30:03.622881 19958 layer_factory.hpp:77] Creating layer conv2
I0311 13:30:03.622920 19958 net.cpp:106] Creating Layer conv2
I0311 13:30:03.622948 19958 net.cpp:454] conv2 <- pool1
I0311 13:30:03.622982 19958 net.cpp:411] conv2 -> conv2
I0311 13:30:03.626333 19958 net.cpp:150] Setting up conv2
I0311 13:30:03.626405 19958 net.cpp:157] Top shape: 100 50 8 8 (320000)
I0311 13:30:03.626435 19958 net.cpp:165] Memory required for data: 7354800
I0311 13:30:03.626474 19958 layer_factory.hpp:77] Creating layer pool2
I0311 13:30:03.626513 19958 net.cpp:106] Creating Layer pool2
I0311 13:30:03.626541 19958 net.cpp:454] pool2 <- conv2
I0311 13:30:03.626572 19958 net.cpp:411] pool2 -> pool2
I0311 13:30:03.627689 19958 net.cpp:150] Setting up pool2
I0311 13:30:03.627734 19958 net.cpp:157] Top shape: 100 50 4 4 (80000)
I0311 13:30:03.627764 19958 net.cpp:165] Memory required for data: 7674800
I0311 13:30:03.627791 19958 layer_factory.hpp:77] Creating layer ip1
I0311 13:30:03.627823 19958 net.cpp:106] Creating Layer ip1
I0311 13:30:03.627851 19958 net.cpp:454] ip1 <- pool2
I0311 13:30:03.627885 19958 net.cpp:411] ip1 -> ip1
I0311 13:30:03.631407 19958 net.cpp:150] Setting up ip1
I0311 13:30:03.631482 19958 net.cpp:157] Top shape: 100 500 (50000)
I0311 13:30:03.631513 19958 net.cpp:165] Memory required for data: 7874800
I0311 13:30:03.631554 19958 layer_factory.hpp:77] Creating layer absVal1
I0311 13:30:03.631587 19958 net.cpp:106] Creating Layer absVal1
I0311 13:30:03.631614 19958 net.cpp:454] absVal1 <- ip1
I0311 13:30:03.631642 19958 net.cpp:411] absVal1 -> absVal1
I0311 13:30:03.631711 19958 net.cpp:150] Setting up absVal1
I0311 13:30:03.631745 19958 net.cpp:157] Top shape: 100 500 (50000)
I0311 13:30:03.631795 19958 net.cpp:165] Memory required for data: 8074800
I0311 13:30:03.631817 19958 layer_factory.hpp:77] Creating layer relu1
I0311 13:30:03.631846 19958 net.cpp:106] Creating Layer relu1
I0311 13:30:03.631876 19958 net.cpp:454] relu1 <- absVal1
I0311 13:30:03.631906 19958 net.cpp:411] relu1 -> relu1
I0311 13:30:03.632997 19958 net.cpp:150] Setting up relu1
I0311 13:30:03.633039 19958 net.cpp:157] Top shape: 100 500 (50000)
I0311 13:30:03.633069 19958 net.cpp:165] Memory required for data: 8274800
I0311 13:30:03.633095 19958 layer_factory.hpp:77] Creating layer ip2
I0311 13:30:03.633129 19958 net.cpp:106] Creating Layer ip2
I0311 13:30:03.633158 19958 net.cpp:454] ip2 <- relu1
I0311 13:30:03.633191 19958 net.cpp:411] ip2 -> ip2
I0311 13:30:03.633446 19958 net.cpp:150] Setting up ip2
I0311 13:30:03.633496 19958 net.cpp:157] Top shape: 100 10 (1000)
I0311 13:30:03.633523 19958 net.cpp:165] Memory required for data: 8278800
I0311 13:30:03.633553 19958 layer_factory.hpp:77] Creating layer ip2_ip2_0_split
I0311 13:30:03.633580 19958 net.cpp:106] Creating Layer ip2_ip2_0_split
I0311 13:30:03.633605 19958 net.cpp:454] ip2_ip2_0_split <- ip2
I0311 13:30:03.633632 19958 net.cpp:411] ip2_ip2_0_split -> ip2_ip2_0_split_0
I0311 13:30:03.633664 19958 net.cpp:411] ip2_ip2_0_split -> ip2_ip2_0_split_1
I0311 13:30:03.633764 19958 net.cpp:150] Setting up ip2_ip2_0_split
I0311 13:30:03.633815 19958 net.cpp:157] Top shape: 100 10 (1000)
I0311 13:30:03.633842 19958 net.cpp:157] Top shape: 100 10 (1000)
I0311 13:30:03.633877 19958 net.cpp:165] Memory required for data: 8286800
I0311 13:30:03.633908 19958 layer_factory.hpp:77] Creating layer accuracy
I0311 13:30:03.633936 19958 net.cpp:106] Creating Layer accuracy
I0311 13:30:03.633962 19958 net.cpp:454] accuracy <- ip2_ip2_0_split_0
I0311 13:30:03.633996 19958 net.cpp:454] accuracy <- label_mnist_1_split_0
I0311 13:30:03.634027 19958 net.cpp:411] accuracy -> accuracy
…
