…
I0311 13:26:51.861960 19870 net.cpp:322] The NetState phase (0) differed from the phase (1) specified by a rule in layer mnist
I0311 13:26:51.861987 19870 net.cpp:322] The NetState phase (0) differed from the phase (1) specified by a rule in layer accuracy
I0311 13:26:51.862110 19870 net.cpp:49] Initializing net from parameters: 
name: "LeNet"
state {
  phase: TRAIN
}
layer {
  name: "mnist"
  type: "Data"
  top: "data"
  top: "label"
  include {
    phase: TRAIN
  }
  transform_param {
    scale: 0.00390625
  }
  data_param {
    source: "examples/mnist/mnist_train_lmdb"
    batch_size: 64
    backend: LMDB
  }
}
layer {
  name: "conv1"
  type: "Convolution"
  bottom: "data"
  top: "conv1"
  param {
    lr_mult: 1
  }
  param {
    lr_mult: 2
  }
  convolution_param {
    num_output: 20
    kernel_size: 5
    stride: 1
    weight_filler {
      type: "xavier"
    }
    bias_filler {
      type: "constant"
    }
  }
}
layer {
  name: "pool1"
  type: "Pooling"
  bottom: "conv1"
  top: "pool1"
  pooling_param {
    pool: MAX
    kernel_size: 2
    stride: 2
  }
}
layer {
  name: "conv2"
  type: "Convolution"
  bottom: "pool1"
  top: "conv2"
  param {
    lr_mult: 1
  }
  param {
    lr_mult: 2
  }
  convolution_param {
    num_output: 50
    kernel_size: 5
    stride: 1
    weight_filler {
      type: "xavier"
    }
    bias_filler {
      type: "constant"
    }
  }
}
layer {
  name: "pool2"
  type: "Pooling"
  bottom: "conv2"
  top: "pool2"
  pooling_param {
    pool: MAX
    kernel_size: 2
    stride: 2
  }
}
layer {
  name: "ip1"
  type: "InnerProduct"
  bottom: "pool2"
  top: "ip1"
  param {
    lr_mult: 1
  }
  param {
    lr_mult: 2
  }
  inner_product_param {
    num_output: 500
    weight_filler {
      type: "xavier"
    }
    bias_filler {
      type: "constant"
    }
  }
}
layer {
  name: "relu1"
  type: "ReLU"
  bottom: "ip1"
  top: "ip1"
}
layer {
  name: "ip2"
  type: "InnerProduct"
  bottom: "ip1"
  top: "ip2"
  param {
    lr_mult: 1
  }
  param {
    lr_mult: 2
  }
  inner_product_param {
    num_output: 10
    weight_filler {
      type: "xavier"
    }
    bias_filler {
      type: "constant"
    }
  }
}
layer {
  name: "loss"
  type: "SoftmaxWithLoss"
  bottom: "ip2"
  bottom: "label"
  top: "loss"
}
I0311 13:26:51.862205 19870 layer_factory.hpp:77] Creating layer mnist
I0311 13:26:51.862839 19870 net.cpp:106] Creating Layer mnist
I0311 13:26:51.862860 19870 net.cpp:411] mnist -> data
I0311 13:26:51.862896 19870 net.cpp:411] mnist -> label
I0311 13:26:51.863821 19874 db_lmdb.cpp:38] Opened lmdb examples/mnist/mnist_train_lmdb
I0311 13:26:51.876250 19870 data_layer.cpp:41] output data size: 64,1,28,28
I0311 13:26:51.877674 19870 net.cpp:150] Setting up mnist
I0311 13:26:51.877701 19870 net.cpp:157] Top shape: 64 1 28 28 (50176)
I0311 13:26:51.877712 19870 net.cpp:157] Top shape: 64 (64)
I0311 13:26:51.877722 19870 net.cpp:165] Memory required for data: 200960
I0311 13:26:51.877737 19870 layer_factory.hpp:77] Creating layer conv1
I0311 13:26:51.877771 19870 net.cpp:106] Creating Layer conv1
I0311 13:26:51.877785 19870 net.cpp:454] conv1 <- data
I0311 13:26:51.877804 19870 net.cpp:411] conv1 -> conv1
I0311 13:26:52.046272 19870 net.cpp:150] Setting up conv1
I0311 13:26:52.046315 19870 net.cpp:157] Top shape: 64 20 24 24 (737280)
I0311 13:26:52.046325 19870 net.cpp:165] Memory required for data: 3150080
I0311 13:26:52.046351 19870 layer_factory.hpp:77] Creating layer pool1
I0311 13:26:52.046375 19870 net.cpp:106] Creating Layer pool1
I0311 13:26:52.046386 19870 net.cpp:454] pool1 <- conv1
I0311 13:26:52.046397 19870 net.cpp:411] pool1 -> pool1
I0311 13:26:52.047268 19870 net.cpp:150] Setting up pool1
I0311 13:26:52.047288 19870 net.cpp:157] Top shape: 64 20 12 12 (184320)
I0311 13:26:52.047294 19870 net.cpp:165] Memory required for data: 3887360
I0311 13:26:52.047300 19870 layer_factory.hpp:77] Creating layer conv2
I0311 13:26:52.047318 19870 net.cpp:106] Creating Layer conv2
I0311 13:26:52.047327 19870 net.cpp:454] conv2 <- pool1
I0311 13:26:52.047336 19870 net.cpp:411] conv2 -> conv2
I0311 13:26:52.050338 19870 net.cpp:150] Setting up conv2
I0311 13:26:52.050362 19870 net.cpp:157] Top shape: 64 50 8 8 (204800)
I0311 13:26:52.050370 19870 net.cpp:165] Memory required for data: 4706560
I0311 13:26:52.050385 19870 layer_factory.hpp:77] Creating layer pool2
I0311 13:26:52.050401 19870 net.cpp:106] Creating Layer pool2
I0311 13:26:52.050410 19870 net.cpp:454] pool2 <- conv2
I0311 13:26:52.050420 19870 net.cpp:411] pool2 -> pool2
I0311 13:26:52.051266 19870 net.cpp:150] Setting up pool2
I0311 13:26:52.051287 19870 net.cpp:157] Top shape: 64 50 4 4 (51200)
I0311 13:26:52.051295 19870 net.cpp:165] Memory required for data: 4911360
I0311 13:26:52.051301 19870 layer_factory.hpp:77] Creating layer ip1
I0311 13:26:52.051324 19870 net.cpp:106] Creating Layer ip1
I0311 13:26:52.051332 19870 net.cpp:454] ip1 <- pool2
I0311 13:26:52.051342 19870 net.cpp:411] ip1 -> ip1
I0311 13:26:52.054801 19870 net.cpp:150] Setting up ip1
I0311 13:26:52.054862 19870 net.cpp:157] Top shape: 64 500 (32000)
I0311 13:26:52.054893 19870 net.cpp:165] Memory required for data: 5039360
I0311 13:26:52.054932 19870 layer_factory.hpp:77] Creating layer relu1
I0311 13:26:52.054965 19870 net.cpp:106] Creating Layer relu1
I0311 13:26:52.054994 19870 net.cpp:454] relu1 <- ip1
I0311 13:26:52.055024 19870 net.cpp:397] relu1 -> ip1 (in-place)
I0311 13:26:52.056001 19870 net.cpp:150] Setting up relu1
I0311 13:26:52.056043 19870 net.cpp:157] Top shape: 64 500 (32000)
I0311 13:26:52.056071 19870 net.cpp:165] Memory required for data: 5167360
I0311 13:26:52.056097 19870 layer_factory.hpp:77] Creating layer ip2
I0311 13:26:52.056129 19870 net.cpp:106] Creating Layer ip2
I0311 13:26:52.056155 19870 net.cpp:454] ip2 <- ip1
I0311 13:26:52.056187 19870 net.cpp:411] ip2 -> ip2
I0311 13:26:52.056874 19870 net.cpp:150] Setting up ip2
I0311 13:26:52.056920 19870 net.cpp:157] Top shape: 64 10 (640)
I0311 13:26:52.056947 19870 net.cpp:165] Memory required for data: 5169920
I0311 13:26:52.056977 19870 layer_factory.hpp:77] Creating layer loss
I0311 13:26:52.057021 19870 net.cpp:106] Creating Layer loss
I0311 13:26:52.057049 19870 net.cpp:454] loss <- ip2
I0311 13:26:52.057076 19870 net.cpp:454] loss <- label
I0311 13:26:52.057104 19870 net.cpp:411] loss -> loss
I0311 13:26:52.057143 19870 layer_factory.hpp:77] Creating layer loss
…
I0311 13:26:52.059062 19870 solver.cpp:181] Creating test net (#0) specified by net file: examples/mnist/lenet_train_test.prototxt
I0311 13:26:52.059123 19870 net.cpp:322] The NetState phase (1) differed from the phase (0) specified by a rule in layer mnist
I0311 13:26:52.059289 19870 net.cpp:49] Initializing net from parameters: 
name: "LeNet"
state {
  phase: TEST
}
layer {
  name: "mnist"
  type: "Data"
  top: "data"
  top: "label"
  include {
    phase: TEST
  }
  transform_param {
    scale: 0.00390625
  }
  data_param {
    source: "examples/mnist/mnist_test_lmdb"
    batch_size: 100
    backend: LMDB
  }
}
layer {
  name: "conv1"
  type: "Convolution"
  bottom: "data"
  top: "conv1"
  param {
    lr_mult: 1
  }
  param {
    lr_mult: 2
  }
  convolution_param {
    num_output: 20
    kernel_size: 5
    stride: 1
    weight_filler {
      type: "xavier"
    }
    bias_filler {
      type: "constant"
    }
  }
}
layer {
  name: "pool1"
  type: "Pooling"
  bottom: "conv1"
  top: "pool1"
  pooling_param {
    pool: MAX
    kernel_size: 2
    stride: 2
  }
}
layer {
  name: "conv2"
  type: "Convolution"
  bottom: "pool1"
  top: "conv2"
  param {
    lr_mult: 1
  }
  param {
    lr_mult: 2
  }
  convolution_param {
    num_output: 50
    kernel_size: 5
    stride: 1
    weight_filler {
      type: "xavier"
    }
    bias_filler {
      type: "constant"
    }
  }
}
layer {
  name: "pool2"
  type: "Pooling"
  bottom: "conv2"
  top: "pool2"
  pooling_param {
    pool: MAX
    kernel_size: 2
    stride: 2
  }
}
layer {
  name: "ip1"
  type: "InnerProduct"
  bottom: "pool2"
  top: "ip1"
  param {
    lr_mult: 1
  }
  param {
    lr_mult: 2
  }
  inner_product_param {
    num_output: 500
    weight_filler {
      type: "xavier"
    }
    bias_filler {
      type: "constant"
    }
  }
}
layer {
  name: "relu1"
  type: "ReLU"
  bottom: "ip1"
  top: "ip1"
}
layer {
  name: "ip2"
  type: "InnerProduct"
  bottom: "ip1"
  top: "ip2"
  param {
    lr_mult: 1
  }
  param {
    lr_mult: 2
  }
  inner_product_param {
    num_output: 10
    weight_filler {
      type: "xavier"
    }
    bias_filler {
      type: "constant"
    }
  }
}
layer {
  name: "accuracy"
  type: "Accuracy"
  bottom: "ip2"
  bottom: "label"
  top: "accuracy"
  include {
    phase: TEST
  }
}
layer {
  name: "loss"
  type: "SoftmaxWithLoss"
  bottom: "ip2"
  bottom: "label"
  top: "loss"
}
I0311 13:26:52.059900 19870 layer_factory.hpp:77] Creating layer mnist
I0311 13:26:52.060066 19870 net.cpp:106] Creating Layer mnist
I0311 13:26:52.060128 19870 net.cpp:411] mnist -> data
I0311 13:26:52.060168 19870 net.cpp:411] mnist -> label
I0311 13:26:52.061133 19876 db_lmdb.cpp:38] Opened lmdb examples/mnist/mnist_test_lmdb
I0311 13:26:52.061290 19870 data_layer.cpp:41] output data size: 100,1,28,28
I0311 13:26:52.062839 19870 net.cpp:150] Setting up mnist
I0311 13:26:52.062904 19870 net.cpp:157] Top shape: 100 1 28 28 (78400)
I0311 13:26:52.062932 19870 net.cpp:157] Top shape: 100 (100)
I0311 13:26:52.062968 19870 net.cpp:165] Memory required for data: 314000
I0311 13:26:52.062994 19870 layer_factory.hpp:77] Creating layer label_mnist_1_split
I0311 13:26:52.063025 19870 net.cpp:106] Creating Layer label_mnist_1_split
I0311 13:26:52.063052 19870 net.cpp:454] label_mnist_1_split <- label
I0311 13:26:52.063081 19870 net.cpp:411] label_mnist_1_split -> label_mnist_1_split_0
I0311 13:26:52.063117 19870 net.cpp:411] label_mnist_1_split -> label_mnist_1_split_1
I0311 13:26:52.063201 19870 net.cpp:150] Setting up label_mnist_1_split
I0311 13:26:52.063235 19870 net.cpp:157] Top shape: 100 (100)
I0311 13:26:52.063261 19870 net.cpp:157] Top shape: 100 (100)
I0311 13:26:52.063282 19870 net.cpp:165] Memory required for data: 314800
I0311 13:26:52.063304 19870 layer_factory.hpp:77] Creating layer conv1
I0311 13:26:52.063339 19870 net.cpp:106] Creating Layer conv1
I0311 13:26:52.063365 19870 net.cpp:454] conv1 <- data
I0311 13:26:52.063396 19870 net.cpp:411] conv1 -> conv1
I0311 13:26:52.066949 19870 net.cpp:150] Setting up conv1
I0311 13:26:52.067008 19870 net.cpp:157] Top shape: 100 20 24 24 (1152000)
I0311 13:26:52.067036 19870 net.cpp:165] Memory required for data: 4922800
I0311 13:26:52.067081 19870 layer_factory.hpp:77] Creating layer pool1
I0311 13:26:52.067116 19870 net.cpp:106] Creating Layer pool1
I0311 13:26:52.067159 19870 net.cpp:454] pool1 <- conv1
I0311 13:26:52.067203 19870 net.cpp:411] pool1 -> pool1
I0311 13:26:52.068167 19870 net.cpp:150] Setting up pool1
I0311 13:26:52.068207 19870 net.cpp:157] Top shape: 100 20 12 12 (288000)
I0311 13:26:52.068244 19870 net.cpp:165] Memory required for data: 6074800
I0311 13:26:52.068272 19870 layer_factory.hpp:77] Creating layer conv2
I0311 13:26:52.068310 19870 net.cpp:106] Creating Layer conv2
I0311 13:26:52.068336 19870 net.cpp:454] conv2 <- pool1
I0311 13:26:52.068368 19870 net.cpp:411] conv2 -> conv2
I0311 13:26:52.071698 19870 net.cpp:150] Setting up conv2
I0311 13:26:52.071758 19870 net.cpp:157] Top shape: 100 50 8 8 (320000)
I0311 13:26:52.071796 19870 net.cpp:165] Memory required for data: 7354800
I0311 13:26:52.071835 19870 layer_factory.hpp:77] Creating layer pool2
I0311 13:26:52.071866 19870 net.cpp:106] Creating Layer pool2
I0311 13:26:52.071892 19870 net.cpp:454] pool2 <- conv2
I0311 13:26:52.071920 19870 net.cpp:411] pool2 -> pool2
I0311 13:26:52.073006 19870 net.cpp:150] Setting up pool2
I0311 13:26:52.073047 19870 net.cpp:157] Top shape: 100 50 4 4 (80000)
I0311 13:26:52.073070 19870 net.cpp:165] Memory required for data: 7674800
I0311 13:26:52.073088 19870 layer_factory.hpp:77] Creating layer ip1
I0311 13:26:52.073117 19870 net.cpp:106] Creating Layer ip1
I0311 13:26:52.073153 19870 net.cpp:454] ip1 <- pool2
I0311 13:26:52.073185 19870 net.cpp:411] ip1 -> ip1
I0311 13:26:52.076674 19870 net.cpp:150] Setting up ip1
I0311 13:26:52.076756 19870 net.cpp:157] Top shape: 100 500 (50000)
I0311 13:26:52.076782 19870 net.cpp:165] Memory required for data: 7874800
I0311 13:26:52.076822 19870 layer_factory.hpp:77] Creating layer relu1
I0311 13:26:52.076858 19870 net.cpp:106] Creating Layer relu1
I0311 13:26:52.076886 19870 net.cpp:454] relu1 <- ip1
I0311 13:26:52.076925 19870 net.cpp:397] relu1 -> ip1 (in-place)
I0311 13:26:52.077925 19870 net.cpp:150] Setting up relu1
I0311 13:26:52.077966 19870 net.cpp:157] Top shape: 100 500 (50000)
I0311 13:26:52.077994 19870 net.cpp:165] Memory required for data: 8074800
I0311 13:26:52.078021 19870 layer_factory.hpp:77] Creating layer ip2
I0311 13:26:52.078057 19870 net.cpp:106] Creating Layer ip2
I0311 13:26:52.078086 19870 net.cpp:454] ip2 <- ip1
I0311 13:26:52.078119 19870 net.cpp:411] ip2 -> ip2
I0311 13:26:52.078349 19870 net.cpp:150] Setting up ip2
I0311 13:26:52.078384 19870 net.cpp:157] Top shape: 100 10 (1000)
I0311 13:26:52.078410 19870 net.cpp:165] Memory required for data: 8078800
I0311 13:26:52.078441 19870 layer_factory.hpp:77] Creating layer ip2_ip2_0_split
I0311 13:26:52.078469 19870 net.cpp:106] Creating Layer ip2_ip2_0_split
I0311 13:26:52.078496 19870 net.cpp:454] ip2_ip2_0_split <- ip2
I0311 13:26:52.078527 19870 net.cpp:411] ip2_ip2_0_split -> ip2_ip2_0_split_0
I0311 13:26:52.078558 19870 net.cpp:411] ip2_ip2_0_split -> ip2_ip2_0_split_1
I0311 13:26:52.078636 19870 net.cpp:150] Setting up ip2_ip2_0_split
I0311 13:26:52.078670 19870 net.cpp:157] Top shape: 100 10 (1000)
I0311 13:26:52.078698 19870 net.cpp:157] Top shape: 100 10 (1000)
I0311 13:26:52.078724 19870 net.cpp:165] Memory required for data: 8086800
I0311 13:26:52.078748 19870 layer_factory.hpp:77] Creating layer accuracy
I0311 13:26:52.078780 19870 net.cpp:106] Creating Layer accuracy
I0311 13:26:52.078816 19870 net.cpp:454] accuracy <- ip2_ip2_0_split_0
I0311 13:26:52.078845 19870 net.cpp:454] accuracy <- label_mnist_1_split_0
I0311 13:26:52.078873 19870 net.cpp:411] accuracy -> accuracy
…
